{"format": "layers-model", "generatedBy": "keras v2.4.0", "convertedBy": "TensorFlow.js Converter v2.7.0", "modelTopology": {"keras_version": "2.4.0", "backend": "tensorflow", "model_config": {"class_name": "Functional", "config": {"name": "model_6", "layers": [{"class_name": "InputLayer", "config": {"batch_input_shape": [null, 224, 224, 3], "dtype": "float32", "sparse": false, "ragged": false, "name": "input_4"}, "name": "input_4", "inbound_nodes": []}, {"class_name": "Conv2D", "config": {"name": "conv2d_159", "trainable": true, "dtype": "float32", "filters": 64, "kernel_size": [7, 7], "strides": [2, 2], "padding": "same", "data_format": "channels_last", "dilation_rate": [1, 1], "groups": 1, "activation": "linear", "use_bias": true, "kernel_initializer": {"class_name": "GlorotUniform", "config": {"seed": null}}, "bias_initializer": {"class_name": "Zeros", "config": {}}, "kernel_regularizer": null, "bias_regularizer": null, "activity_regularizer": null, "kernel_constraint": null, "bias_constraint": null}, "name": "conv2d_159", "inbound_nodes": [[["input_4", 0, 0, {}]]]}, {"class_name": "BatchNormalization", "config": {"name": "batch_normalization_159", "trainable": true, "dtype": "float32", "axis": [3], "momentum": 0.99, "epsilon": 0.001, "center": true, "scale": true, "beta_initializer": {"class_name": "Zeros", "config": {}}, "gamma_initializer": {"class_name": "Ones", "config": {}}, "moving_mean_initializer": {"class_name": "Zeros", "config": {}}, "moving_variance_initializer": {"class_name": "Ones", "config": {}}, "beta_regularizer": null, "gamma_regularizer": null, "beta_constraint": null, "gamma_constraint": null}, "name": "batch_normalization_159", "inbound_nodes": [[["conv2d_159", 0, 0, {}]]]}, {"class_name": "Activation", "config": {"name": "activation_152", "trainable": true, "dtype": "float32", "activation": "relu"}, "name": "activation_152", "inbound_nodes": [[["batch_normalization_159", 0, 0, {}]]]}, {"class_name": "MaxPooling2D", "config": {"name": "max_pooling2d_3", "trainable": true, "dtype": "float32", "pool_size": [3, 3], "padding": "valid", "strides": [2, 2], "data_format": "channels_last"}, "name": "max_pooling2d_3", "inbound_nodes": [[["activation_152", 0, 0, {}]]]}, {"class_name": "Conv2D", "config": {"name": "conv2d_161", "trainable": true, "dtype": "float32", "filters": 64, "kernel_size": [1, 1], "strides": [1, 1], "padding": "same", "data_format": "channels_last", "dilation_rate": [1, 1], "groups": 1, "activation": "linear", "use_bias": true, "kernel_initializer": {"class_name": "GlorotUniform", "config": {"seed": null}}, "bias_initializer": {"class_name": "Zeros", "config": {}}, "kernel_regularizer": null, "bias_regularizer": null, "activity_regularizer": null, "kernel_constraint": null, "bias_constraint": null}, "name": "conv2d_161", "inbound_nodes": [[["max_pooling2d_3", 0, 0, {}]]]}, {"class_name": "BatchNormalization", "config": {"name": "batch_normalization_161", "trainable": true, "dtype": "float32", "axis": [3], "momentum": 0.99, "epsilon": 0.001, "center": true, "scale": true, "beta_initializer": {"class_name": "Zeros", "config": {}}, "gamma_initializer": {"class_name": "Ones", "config": {}}, "moving_mean_initializer": {"class_name": "Zeros", "config": {}}, "moving_variance_initializer": {"class_name": "Ones", "config": {}}, "beta_regularizer": null, "gamma_regularizer": null, "beta_constraint": null, "gamma_constraint": null}, "name": "batch_normalization_161", "inbound_nodes": [[["conv2d_161", 0, 0, {}]]]}, {"class_name": "Activation", "config": {"name": "activation_153", "trainable": true, "dtype": "float32", "activation": "relu"}, "name": "activation_153", "inbound_nodes": [[["batch_normalization_161", 0, 0, {}]]]}, {"class_name": "Conv2D", "config": {"name": "conv2d_162", "trainable": true, "dtype": "float32", "filters": 64, "kernel_size": [3, 3], "strides": [1, 1], "padding": "same", "data_format": "channels_last", "dilation_rate": [1, 1], "groups": 1, "activation": "linear", "use_bias": true, "kernel_initializer": {"class_name": "GlorotUniform", "config": {"seed": null}}, "bias_initializer": {"class_name": "Zeros", "config": {}}, "kernel_regularizer": null, "bias_regularizer": null, "activity_regularizer": null, "kernel_constraint": null, "bias_constraint": null}, "name": "conv2d_162", "inbound_nodes": [[["activation_153", 0, 0, {}]]]}, {"class_name": "BatchNormalization", "config": {"name": "batch_normalization_162", "trainable": true, "dtype": "float32", "axis": [3], "momentum": 0.99, "epsilon": 0.001, "center": true, "scale": true, "beta_initializer": {"class_name": "Zeros", "config": {}}, "gamma_initializer": {"class_name": "Ones", "config": {}}, "moving_mean_initializer": {"class_name": "Zeros", "config": {}}, "moving_variance_initializer": {"class_name": "Ones", "config": {}}, "beta_regularizer": null, "gamma_regularizer": null, "beta_constraint": null, "gamma_constraint": null}, "name": "batch_normalization_162", "inbound_nodes": [[["conv2d_162", 0, 0, {}]]]}, {"class_name": "Activation", "config": {"name": "activation_154", "trainable": true, "dtype": "float32", "activation": "relu"}, "name": "activation_154", "inbound_nodes": [[["batch_normalization_162", 0, 0, {}]]]}, {"class_name": "Conv2D", "config": {"name": "conv2d_163", "trainable": true, "dtype": "float32", "filters": 256, "kernel_size": [1, 1], "strides": [1, 1], "padding": "same", "data_format": "channels_last", "dilation_rate": [1, 1], "groups": 1, "activation": "linear", "use_bias": true, "kernel_initializer": {"class_name": "GlorotUniform", "config": {"seed": null}}, "bias_initializer": {"class_name": "Zeros", "config": {}}, "kernel_regularizer": null, "bias_regularizer": null, "activity_regularizer": null, "kernel_constraint": null, "bias_constraint": null}, "name": "conv2d_163", "inbound_nodes": [[["activation_154", 0, 0, {}]]]}, {"class_name": "Conv2D", "config": {"name": "conv2d_160", "trainable": true, "dtype": "float32", "filters": 256, "kernel_size": [1, 1], "strides": [1, 1], "padding": "same", "data_format": "channels_last", "dilation_rate": [1, 1], "groups": 1, "activation": "linear", "use_bias": true, "kernel_initializer": {"class_name": "GlorotUniform", "config": {"seed": null}}, "bias_initializer": {"class_name": "Zeros", "config": {}}, "kernel_regularizer": null, "bias_regularizer": null, "activity_regularizer": null, "kernel_constraint": null, "bias_constraint": null}, "name": "conv2d_160", "inbound_nodes": [[["max_pooling2d_3", 0, 0, {}]]]}, {"class_name": "BatchNormalization", "config": {"name": "batch_normalization_163", "trainable": true, "dtype": "float32", "axis": [3], "momentum": 0.99, "epsilon": 0.001, "center": true, "scale": true, "beta_initializer": {"class_name": "Zeros", "config": {}}, "gamma_initializer": {"class_name": "Ones", "config": {}}, "moving_mean_initializer": {"class_name": "Zeros", "config": {}}, "moving_variance_initializer": {"class_name": "Ones", "config": {}}, "beta_regularizer": null, "gamma_regularizer": null, "beta_constraint": null, "gamma_constraint": null}, "name": "batch_normalization_163", "inbound_nodes": [[["conv2d_163", 0, 0, {}]]]}, {"class_name": "BatchNormalization", "config": {"name": "batch_normalization_160", "trainable": true, "dtype": "float32", "axis": [3], "momentum": 0.99, "epsilon": 0.001, "center": true, "scale": true, "beta_initializer": {"class_name": "Zeros", "config": {}}, "gamma_initializer": {"class_name": "Ones", "config": {}}, "moving_mean_initializer": {"class_name": "Zeros", "config": {}}, "moving_variance_initializer": {"class_name": "Ones", "config": {}}, "beta_regularizer": null, "gamma_regularizer": null, "beta_constraint": null, "gamma_constraint": null}, "name": "batch_normalization_160", "inbound_nodes": [[["conv2d_160", 0, 0, {}]]]}, {"class_name": "Add", "config": {"name": "add_48", "trainable": true, "dtype": "float32"}, "name": "add_48", "inbound_nodes": [[["batch_normalization_163", 0, 0, {}], ["batch_normalization_160", 0, 0, {}]]]}, {"class_name": "Activation", "config": {"name": "activation_155", "trainable": true, "dtype": "float32", "activation": "relu"}, "name": "activation_155", "inbound_nodes": [[["add_48", 0, 0, {}]]]}, {"class_name": "Conv2D", "config": {"name": "conv2d_164", "trainable": true, "dtype": "float32", "filters": 64, "kernel_size": [1, 1], "strides": [1, 1], "padding": "same", "data_format": "channels_last", "dilation_rate": [1, 1], "groups": 1, "activation": "linear", "use_bias": true, "kernel_initializer": {"class_name": "GlorotUniform", "config": {"seed": null}}, "bias_initializer": {"class_name": "Zeros", "config": {}}, "kernel_regularizer": null, "bias_regularizer": null, "activity_regularizer": null, "kernel_constraint": null, "bias_constraint": null}, "name": "conv2d_164", "inbound_nodes": [[["activation_155", 0, 0, {}]]]}, {"class_name": "BatchNormalization", "config": {"name": "batch_normalization_164", "trainable": true, "dtype": "float32", "axis": [3], "momentum": 0.99, "epsilon": 0.001, "center": true, "scale": true, "beta_initializer": {"class_name": "Zeros", "config": {}}, "gamma_initializer": {"class_name": "Ones", "config": {}}, "moving_mean_initializer": {"class_name": "Zeros", "config": {}}, "moving_variance_initializer": {"class_name": "Ones", "config": {}}, "beta_regularizer": null, "gamma_regularizer": null, "beta_constraint": null, "gamma_constraint": null}, "name": "batch_normalization_164", "inbound_nodes": [[["conv2d_164", 0, 0, {}]]]}, {"class_name": "Activation", "config": {"name": "activation_156", "trainable": true, "dtype": "float32", "activation": "relu"}, "name": "activation_156", "inbound_nodes": [[["batch_normalization_164", 0, 0, {}]]]}, {"class_name": "Conv2D", "config": {"name": "conv2d_165", "trainable": true, "dtype": "float32", "filters": 64, "kernel_size": [3, 3], "strides": [1, 1], "padding": "same", "data_format": "channels_last", "dilation_rate": [1, 1], "groups": 1, "activation": "linear", "use_bias": true, "kernel_initializer": {"class_name": "GlorotUniform", "config": {"seed": null}}, "bias_initializer": {"class_name": "Zeros", "config": {}}, "kernel_regularizer": null, "bias_regularizer": null, "activity_regularizer": null, "kernel_constraint": null, "bias_constraint": null}, "name": "conv2d_165", "inbound_nodes": [[["activation_156", 0, 0, {}]]]}, {"class_name": "BatchNormalization", "config": {"name": "batch_normalization_165", "trainable": true, "dtype": "float32", "axis": [3], "momentum": 0.99, "epsilon": 0.001, "center": true, "scale": true, "beta_initializer": {"class_name": "Zeros", "config": {}}, "gamma_initializer": {"class_name": "Ones", "config": {}}, "moving_mean_initializer": {"class_name": "Zeros", "config": {}}, "moving_variance_initializer": {"class_name": "Ones", "config": {}}, "beta_regularizer": null, "gamma_regularizer": null, "beta_constraint": null, "gamma_constraint": null}, "name": "batch_normalization_165", "inbound_nodes": [[["conv2d_165", 0, 0, {}]]]}, {"class_name": "Activation", "config": {"name": "activation_157", "trainable": true, "dtype": "float32", "activation": "relu"}, "name": "activation_157", "inbound_nodes": [[["batch_normalization_165", 0, 0, {}]]]}, {"class_name": "Conv2D", "config": {"name": "conv2d_166", "trainable": true, "dtype": "float32", "filters": 256, "kernel_size": [1, 1], "strides": [1, 1], "padding": "same", "data_format": "channels_last", "dilation_rate": [1, 1], "groups": 1, "activation": "linear", "use_bias": true, "kernel_initializer": {"class_name": "GlorotUniform", "config": {"seed": null}}, "bias_initializer": {"class_name": "Zeros", "config": {}}, "kernel_regularizer": null, "bias_regularizer": null, "activity_regularizer": null, "kernel_constraint": null, "bias_constraint": null}, "name": "conv2d_166", "inbound_nodes": [[["activation_157", 0, 0, {}]]]}, {"class_name": "BatchNormalization", "config": {"name": "batch_normalization_166", "trainable": true, "dtype": "float32", "axis": [3], "momentum": 0.99, "epsilon": 0.001, "center": true, "scale": true, "beta_initializer": {"class_name": "Zeros", "config": {}}, "gamma_initializer": {"class_name": "Ones", "config": {}}, "moving_mean_initializer": {"class_name": "Zeros", "config": {}}, "moving_variance_initializer": {"class_name": "Ones", "config": {}}, "beta_regularizer": null, "gamma_regularizer": null, "beta_constraint": null, "gamma_constraint": null}, "name": "batch_normalization_166", "inbound_nodes": [[["conv2d_166", 0, 0, {}]]]}, {"class_name": "Add", "config": {"name": "add_49", "trainable": true, "dtype": "float32"}, "name": "add_49", "inbound_nodes": [[["batch_normalization_166", 0, 0, {}], ["activation_155", 0, 0, {}]]]}, {"class_name": "Activation", "config": {"name": "activation_158", "trainable": true, "dtype": "float32", "activation": "relu"}, "name": "activation_158", "inbound_nodes": [[["add_49", 0, 0, {}]]]}, {"class_name": "Conv2D", "config": {"name": "conv2d_167", "trainable": true, "dtype": "float32", "filters": 64, "kernel_size": [1, 1], "strides": [1, 1], "padding": "same", "data_format": "channels_last", "dilation_rate": [1, 1], "groups": 1, "activation": "linear", "use_bias": true, "kernel_initializer": {"class_name": "GlorotUniform", "config": {"seed": null}}, "bias_initializer": {"class_name": "Zeros", "config": {}}, "kernel_regularizer": null, "bias_regularizer": null, "activity_regularizer": null, "kernel_constraint": null, "bias_constraint": null}, "name": "conv2d_167", "inbound_nodes": [[["activation_158", 0, 0, {}]]]}, {"class_name": "BatchNormalization", "config": {"name": "batch_normalization_167", "trainable": true, "dtype": "float32", "axis": [3], "momentum": 0.99, "epsilon": 0.001, "center": true, "scale": true, "beta_initializer": {"class_name": "Zeros", "config": {}}, "gamma_initializer": {"class_name": "Ones", "config": {}}, "moving_mean_initializer": {"class_name": "Zeros", "config": {}}, "moving_variance_initializer": {"class_name": "Ones", "config": {}}, "beta_regularizer": null, "gamma_regularizer": null, "beta_constraint": null, "gamma_constraint": null}, "name": "batch_normalization_167", "inbound_nodes": [[["conv2d_167", 0, 0, {}]]]}, {"class_name": "Activation", "config": {"name": "activation_159", "trainable": true, "dtype": "float32", "activation": "relu"}, "name": "activation_159", "inbound_nodes": [[["batch_normalization_167", 0, 0, {}]]]}, {"class_name": "Conv2D", "config": {"name": "conv2d_168", "trainable": true, "dtype": "float32", "filters": 64, "kernel_size": [3, 3], "strides": [1, 1], "padding": "same", "data_format": "channels_last", "dilation_rate": [1, 1], "groups": 1, "activation": "linear", "use_bias": true, "kernel_initializer": {"class_name": "GlorotUniform", "config": {"seed": null}}, "bias_initializer": {"class_name": "Zeros", "config": {}}, "kernel_regularizer": null, "bias_regularizer": null, "activity_regularizer": null, "kernel_constraint": null, "bias_constraint": null}, "name": "conv2d_168", "inbound_nodes": [[["activation_159", 0, 0, {}]]]}, {"class_name": "BatchNormalization", "config": {"name": "batch_normalization_168", "trainable": true, "dtype": "float32", "axis": [3], "momentum": 0.99, "epsilon": 0.001, "center": true, "scale": true, "beta_initializer": {"class_name": "Zeros", "config": {}}, "gamma_initializer": {"class_name": "Ones", "config": {}}, "moving_mean_initializer": {"class_name": "Zeros", "config": {}}, "moving_variance_initializer": {"class_name": "Ones", "config": {}}, "beta_regularizer": null, "gamma_regularizer": null, "beta_constraint": null, "gamma_constraint": null}, "name": "batch_normalization_168", "inbound_nodes": [[["conv2d_168", 0, 0, {}]]]}, {"class_name": "Activation", "config": {"name": "activation_160", "trainable": true, "dtype": "float32", "activation": "relu"}, "name": "activation_160", "inbound_nodes": [[["batch_normalization_168", 0, 0, {}]]]}, {"class_name": "Conv2D", "config": {"name": "conv2d_169", "trainable": true, "dtype": "float32", "filters": 256, "kernel_size": [1, 1], "strides": [1, 1], "padding": "same", "data_format": "channels_last", "dilation_rate": [1, 1], "groups": 1, "activation": "linear", "use_bias": true, "kernel_initializer": {"class_name": "GlorotUniform", "config": {"seed": null}}, "bias_initializer": {"class_name": "Zeros", "config": {}}, "kernel_regularizer": null, "bias_regularizer": null, "activity_regularizer": null, "kernel_constraint": null, "bias_constraint": null}, "name": "conv2d_169", "inbound_nodes": [[["activation_160", 0, 0, {}]]]}, {"class_name": "BatchNormalization", "config": {"name": "batch_normalization_169", "trainable": true, "dtype": "float32", "axis": [3], "momentum": 0.99, "epsilon": 0.001, "center": true, "scale": true, "beta_initializer": {"class_name": "Zeros", "config": {}}, "gamma_initializer": {"class_name": "Ones", "config": {}}, "moving_mean_initializer": {"class_name": "Zeros", "config": {}}, "moving_variance_initializer": {"class_name": "Ones", "config": {}}, "beta_regularizer": null, "gamma_regularizer": null, "beta_constraint": null, "gamma_constraint": null}, "name": "batch_normalization_169", "inbound_nodes": [[["conv2d_169", 0, 0, {}]]]}, {"class_name": "Add", "config": {"name": "add_50", "trainable": true, "dtype": "float32"}, "name": "add_50", "inbound_nodes": [[["batch_normalization_169", 0, 0, {}], ["activation_158", 0, 0, {}]]]}, {"class_name": "Activation", "config": {"name": "activation_161", "trainable": true, "dtype": "float32", "activation": "relu"}, "name": "activation_161", "inbound_nodes": [[["add_50", 0, 0, {}]]]}, {"class_name": "Conv2D", "config": {"name": "conv2d_171", "trainable": true, "dtype": "float32", "filters": 128, "kernel_size": [1, 1], "strides": [2, 2], "padding": "same", "data_format": "channels_last", "dilation_rate": [1, 1], "groups": 1, "activation": "linear", "use_bias": true, "kernel_initializer": {"class_name": "GlorotUniform", "config": {"seed": null}}, "bias_initializer": {"class_name": "Zeros", "config": {}}, "kernel_regularizer": null, "bias_regularizer": null, "activity_regularizer": null, "kernel_constraint": null, "bias_constraint": null}, "name": "conv2d_171", "inbound_nodes": [[["activation_161", 0, 0, {}]]]}, {"class_name": "BatchNormalization", "config": {"name": "batch_normalization_171", "trainable": true, "dtype": "float32", "axis": [3], "momentum": 0.99, "epsilon": 0.001, "center": true, "scale": true, "beta_initializer": {"class_name": "Zeros", "config": {}}, "gamma_initializer": {"class_name": "Ones", "config": {}}, "moving_mean_initializer": {"class_name": "Zeros", "config": {}}, "moving_variance_initializer": {"class_name": "Ones", "config": {}}, "beta_regularizer": null, "gamma_regularizer": null, "beta_constraint": null, "gamma_constraint": null}, "name": "batch_normalization_171", "inbound_nodes": [[["conv2d_171", 0, 0, {}]]]}, {"class_name": "Activation", "config": {"name": "activation_162", "trainable": true, "dtype": "float32", "activation": "relu"}, "name": "activation_162", "inbound_nodes": [[["batch_normalization_171", 0, 0, {}]]]}, {"class_name": "Conv2D", "config": {"name": "conv2d_172", "trainable": true, "dtype": "float32", "filters": 128, "kernel_size": [3, 3], "strides": [1, 1], "padding": "same", "data_format": "channels_last", "dilation_rate": [1, 1], "groups": 1, "activation": "linear", "use_bias": true, "kernel_initializer": {"class_name": "GlorotUniform", "config": {"seed": null}}, "bias_initializer": {"class_name": "Zeros", "config": {}}, "kernel_regularizer": null, "bias_regularizer": null, "activity_regularizer": null, "kernel_constraint": null, "bias_constraint": null}, "name": "conv2d_172", "inbound_nodes": [[["activation_162", 0, 0, {}]]]}, {"class_name": "BatchNormalization", "config": {"name": "batch_normalization_172", "trainable": true, "dtype": "float32", "axis": [3], "momentum": 0.99, "epsilon": 0.001, "center": true, "scale": true, "beta_initializer": {"class_name": "Zeros", "config": {}}, "gamma_initializer": {"class_name": "Ones", "config": {}}, "moving_mean_initializer": {"class_name": "Zeros", "config": {}}, "moving_variance_initializer": {"class_name": "Ones", "config": {}}, "beta_regularizer": null, "gamma_regularizer": null, "beta_constraint": null, "gamma_constraint": null}, "name": "batch_normalization_172", "inbound_nodes": [[["conv2d_172", 0, 0, {}]]]}, {"class_name": "Activation", "config": {"name": "activation_163", "trainable": true, "dtype": "float32", "activation": "relu"}, "name": "activation_163", "inbound_nodes": [[["batch_normalization_172", 0, 0, {}]]]}, {"class_name": "Conv2D", "config": {"name": "conv2d_173", "trainable": true, "dtype": "float32", "filters": 512, "kernel_size": [1, 1], "strides": [1, 1], "padding": "same", "data_format": "channels_last", "dilation_rate": [1, 1], "groups": 1, "activation": "linear", "use_bias": true, "kernel_initializer": {"class_name": "GlorotUniform", "config": {"seed": null}}, "bias_initializer": {"class_name": "Zeros", "config": {}}, "kernel_regularizer": null, "bias_regularizer": null, "activity_regularizer": null, "kernel_constraint": null, "bias_constraint": null}, "name": "conv2d_173", "inbound_nodes": [[["activation_163", 0, 0, {}]]]}, {"class_name": "Conv2D", "config": {"name": "conv2d_170", "trainable": true, "dtype": "float32", "filters": 512, "kernel_size": [1, 1], "strides": [2, 2], "padding": "same", "data_format": "channels_last", "dilation_rate": [1, 1], "groups": 1, "activation": "linear", "use_bias": true, "kernel_initializer": {"class_name": "GlorotUniform", "config": {"seed": null}}, "bias_initializer": {"class_name": "Zeros", "config": {}}, "kernel_regularizer": null, "bias_regularizer": null, "activity_regularizer": null, "kernel_constraint": null, "bias_constraint": null}, "name": "conv2d_170", "inbound_nodes": [[["activation_161", 0, 0, {}]]]}, {"class_name": "BatchNormalization", "config": {"name": "batch_normalization_173", "trainable": true, "dtype": "float32", "axis": [3], "momentum": 0.99, "epsilon": 0.001, "center": true, "scale": true, "beta_initializer": {"class_name": "Zeros", "config": {}}, "gamma_initializer": {"class_name": "Ones", "config": {}}, "moving_mean_initializer": {"class_name": "Zeros", "config": {}}, "moving_variance_initializer": {"class_name": "Ones", "config": {}}, "beta_regularizer": null, "gamma_regularizer": null, "beta_constraint": null, "gamma_constraint": null}, "name": "batch_normalization_173", "inbound_nodes": [[["conv2d_173", 0, 0, {}]]]}, {"class_name": "BatchNormalization", "config": {"name": "batch_normalization_170", "trainable": true, "dtype": "float32", "axis": [3], "momentum": 0.99, "epsilon": 0.001, "center": true, "scale": true, "beta_initializer": {"class_name": "Zeros", "config": {}}, "gamma_initializer": {"class_name": "Ones", "config": {}}, "moving_mean_initializer": {"class_name": "Zeros", "config": {}}, "moving_variance_initializer": {"class_name": "Ones", "config": {}}, "beta_regularizer": null, "gamma_regularizer": null, "beta_constraint": null, "gamma_constraint": null}, "name": "batch_normalization_170", "inbound_nodes": [[["conv2d_170", 0, 0, {}]]]}, {"class_name": "Add", "config": {"name": "add_51", "trainable": true, "dtype": "float32"}, "name": "add_51", "inbound_nodes": [[["batch_normalization_173", 0, 0, {}], ["batch_normalization_170", 0, 0, {}]]]}, {"class_name": "Activation", "config": {"name": "activation_164", "trainable": true, "dtype": "float32", "activation": "relu"}, "name": "activation_164", "inbound_nodes": [[["add_51", 0, 0, {}]]]}, {"class_name": "Conv2D", "config": {"name": "conv2d_174", "trainable": true, "dtype": "float32", "filters": 128, "kernel_size": [1, 1], "strides": [1, 1], "padding": "same", "data_format": "channels_last", "dilation_rate": [1, 1], "groups": 1, "activation": "linear", "use_bias": true, "kernel_initializer": {"class_name": "GlorotUniform", "config": {"seed": null}}, "bias_initializer": {"class_name": "Zeros", "config": {}}, "kernel_regularizer": null, "bias_regularizer": null, "activity_regularizer": null, "kernel_constraint": null, "bias_constraint": null}, "name": "conv2d_174", "inbound_nodes": [[["activation_164", 0, 0, {}]]]}, {"class_name": "BatchNormalization", "config": {"name": "batch_normalization_174", "trainable": true, "dtype": "float32", "axis": [3], "momentum": 0.99, "epsilon": 0.001, "center": true, "scale": true, "beta_initializer": {"class_name": "Zeros", "config": {}}, "gamma_initializer": {"class_name": "Ones", "config": {}}, "moving_mean_initializer": {"class_name": "Zeros", "config": {}}, "moving_variance_initializer": {"class_name": "Ones", "config": {}}, "beta_regularizer": null, "gamma_regularizer": null, "beta_constraint": null, "gamma_constraint": null}, "name": "batch_normalization_174", "inbound_nodes": [[["conv2d_174", 0, 0, {}]]]}, {"class_name": "Activation", "config": {"name": "activation_165", "trainable": true, "dtype": "float32", "activation": "relu"}, "name": "activation_165", "inbound_nodes": [[["batch_normalization_174", 0, 0, {}]]]}, {"class_name": "Conv2D", "config": {"name": "conv2d_175", "trainable": true, "dtype": "float32", "filters": 128, "kernel_size": [3, 3], "strides": [1, 1], "padding": "same", "data_format": "channels_last", "dilation_rate": [1, 1], "groups": 1, "activation": "linear", "use_bias": true, "kernel_initializer": {"class_name": "GlorotUniform", "config": {"seed": null}}, "bias_initializer": {"class_name": "Zeros", "config": {}}, "kernel_regularizer": null, "bias_regularizer": null, "activity_regularizer": null, "kernel_constraint": null, "bias_constraint": null}, "name": "conv2d_175", "inbound_nodes": [[["activation_165", 0, 0, {}]]]}, {"class_name": "BatchNormalization", "config": {"name": "batch_normalization_175", "trainable": true, "dtype": "float32", "axis": [3], "momentum": 0.99, "epsilon": 0.001, "center": true, "scale": true, "beta_initializer": {"class_name": "Zeros", "config": {}}, "gamma_initializer": {"class_name": "Ones", "config": {}}, "moving_mean_initializer": {"class_name": "Zeros", "config": {}}, "moving_variance_initializer": {"class_name": "Ones", "config": {}}, "beta_regularizer": null, "gamma_regularizer": null, "beta_constraint": null, "gamma_constraint": null}, "name": "batch_normalization_175", "inbound_nodes": [[["conv2d_175", 0, 0, {}]]]}, {"class_name": "Activation", "config": {"name": "activation_166", "trainable": true, "dtype": "float32", "activation": "relu"}, "name": "activation_166", "inbound_nodes": [[["batch_normalization_175", 0, 0, {}]]]}, {"class_name": "Conv2D", "config": {"name": "conv2d_176", "trainable": true, "dtype": "float32", "filters": 512, "kernel_size": [1, 1], "strides": [1, 1], "padding": "same", "data_format": "channels_last", "dilation_rate": [1, 1], "groups": 1, "activation": "linear", "use_bias": true, "kernel_initializer": {"class_name": "GlorotUniform", "config": {"seed": null}}, "bias_initializer": {"class_name": "Zeros", "config": {}}, "kernel_regularizer": null, "bias_regularizer": null, "activity_regularizer": null, "kernel_constraint": null, "bias_constraint": null}, "name": "conv2d_176", "inbound_nodes": [[["activation_166", 0, 0, {}]]]}, {"class_name": "BatchNormalization", "config": {"name": "batch_normalization_176", "trainable": true, "dtype": "float32", "axis": [3], "momentum": 0.99, "epsilon": 0.001, "center": true, "scale": true, "beta_initializer": {"class_name": "Zeros", "config": {}}, "gamma_initializer": {"class_name": "Ones", "config": {}}, "moving_mean_initializer": {"class_name": "Zeros", "config": {}}, "moving_variance_initializer": {"class_name": "Ones", "config": {}}, "beta_regularizer": null, "gamma_regularizer": null, "beta_constraint": null, "gamma_constraint": null}, "name": "batch_normalization_176", "inbound_nodes": [[["conv2d_176", 0, 0, {}]]]}, {"class_name": "Add", "config": {"name": "add_52", "trainable": true, "dtype": "float32"}, "name": "add_52", "inbound_nodes": [[["batch_normalization_176", 0, 0, {}], ["activation_164", 0, 0, {}]]]}, {"class_name": "Activation", "config": {"name": "activation_167", "trainable": true, "dtype": "float32", "activation": "relu"}, "name": "activation_167", "inbound_nodes": [[["add_52", 0, 0, {}]]]}, {"class_name": "Conv2D", "config": {"name": "conv2d_177", "trainable": true, "dtype": "float32", "filters": 128, "kernel_size": [1, 1], "strides": [1, 1], "padding": "same", "data_format": "channels_last", "dilation_rate": [1, 1], "groups": 1, "activation": "linear", "use_bias": true, "kernel_initializer": {"class_name": "GlorotUniform", "config": {"seed": null}}, "bias_initializer": {"class_name": "Zeros", "config": {}}, "kernel_regularizer": null, "bias_regularizer": null, "activity_regularizer": null, "kernel_constraint": null, "bias_constraint": null}, "name": "conv2d_177", "inbound_nodes": [[["activation_167", 0, 0, {}]]]}, {"class_name": "BatchNormalization", "config": {"name": "batch_normalization_177", "trainable": true, "dtype": "float32", "axis": [3], "momentum": 0.99, "epsilon": 0.001, "center": true, "scale": true, "beta_initializer": {"class_name": "Zeros", "config": {}}, "gamma_initializer": {"class_name": "Ones", "config": {}}, "moving_mean_initializer": {"class_name": "Zeros", "config": {}}, "moving_variance_initializer": {"class_name": "Ones", "config": {}}, "beta_regularizer": null, "gamma_regularizer": null, "beta_constraint": null, "gamma_constraint": null}, "name": "batch_normalization_177", "inbound_nodes": [[["conv2d_177", 0, 0, {}]]]}, {"class_name": "Activation", "config": {"name": "activation_168", "trainable": true, "dtype": "float32", "activation": "relu"}, "name": "activation_168", "inbound_nodes": [[["batch_normalization_177", 0, 0, {}]]]}, {"class_name": "Conv2D", "config": {"name": "conv2d_178", "trainable": true, "dtype": "float32", "filters": 128, "kernel_size": [3, 3], "strides": [1, 1], "padding": "same", "data_format": "channels_last", "dilation_rate": [1, 1], "groups": 1, "activation": "linear", "use_bias": true, "kernel_initializer": {"class_name": "GlorotUniform", "config": {"seed": null}}, "bias_initializer": {"class_name": "Zeros", "config": {}}, "kernel_regularizer": null, "bias_regularizer": null, "activity_regularizer": null, "kernel_constraint": null, "bias_constraint": null}, "name": "conv2d_178", "inbound_nodes": [[["activation_168", 0, 0, {}]]]}, {"class_name": "BatchNormalization", "config": {"name": "batch_normalization_178", "trainable": true, "dtype": "float32", "axis": [3], "momentum": 0.99, "epsilon": 0.001, "center": true, "scale": true, "beta_initializer": {"class_name": "Zeros", "config": {}}, "gamma_initializer": {"class_name": "Ones", "config": {}}, "moving_mean_initializer": {"class_name": "Zeros", "config": {}}, "moving_variance_initializer": {"class_name": "Ones", "config": {}}, "beta_regularizer": null, "gamma_regularizer": null, "beta_constraint": null, "gamma_constraint": null}, "name": "batch_normalization_178", "inbound_nodes": [[["conv2d_178", 0, 0, {}]]]}, {"class_name": "Activation", "config": {"name": "activation_169", "trainable": true, "dtype": "float32", "activation": "relu"}, "name": "activation_169", "inbound_nodes": [[["batch_normalization_178", 0, 0, {}]]]}, {"class_name": "Conv2D", "config": {"name": "conv2d_179", "trainable": true, "dtype": "float32", "filters": 512, "kernel_size": [1, 1], "strides": [1, 1], "padding": "same", "data_format": "channels_last", "dilation_rate": [1, 1], "groups": 1, "activation": "linear", "use_bias": true, "kernel_initializer": {"class_name": "GlorotUniform", "config": {"seed": null}}, "bias_initializer": {"class_name": "Zeros", "config": {}}, "kernel_regularizer": null, "bias_regularizer": null, "activity_regularizer": null, "kernel_constraint": null, "bias_constraint": null}, "name": "conv2d_179", "inbound_nodes": [[["activation_169", 0, 0, {}]]]}, {"class_name": "BatchNormalization", "config": {"name": "batch_normalization_179", "trainable": true, "dtype": "float32", "axis": [3], "momentum": 0.99, "epsilon": 0.001, "center": true, "scale": true, "beta_initializer": {"class_name": "Zeros", "config": {}}, "gamma_initializer": {"class_name": "Ones", "config": {}}, "moving_mean_initializer": {"class_name": "Zeros", "config": {}}, "moving_variance_initializer": {"class_name": "Ones", "config": {}}, "beta_regularizer": null, "gamma_regularizer": null, "beta_constraint": null, "gamma_constraint": null}, "name": "batch_normalization_179", "inbound_nodes": [[["conv2d_179", 0, 0, {}]]]}, {"class_name": "Add", "config": {"name": "add_53", "trainable": true, "dtype": "float32"}, "name": "add_53", "inbound_nodes": [[["batch_normalization_179", 0, 0, {}], ["activation_167", 0, 0, {}]]]}, {"class_name": "Activation", "config": {"name": "activation_170", "trainable": true, "dtype": "float32", "activation": "relu"}, "name": "activation_170", "inbound_nodes": [[["add_53", 0, 0, {}]]]}, {"class_name": "Conv2D", "config": {"name": "conv2d_180", "trainable": true, "dtype": "float32", "filters": 128, "kernel_size": [1, 1], "strides": [1, 1], "padding": "same", "data_format": "channels_last", "dilation_rate": [1, 1], "groups": 1, "activation": "linear", "use_bias": true, "kernel_initializer": {"class_name": "GlorotUniform", "config": {"seed": null}}, "bias_initializer": {"class_name": "Zeros", "config": {}}, "kernel_regularizer": null, "bias_regularizer": null, "activity_regularizer": null, "kernel_constraint": null, "bias_constraint": null}, "name": "conv2d_180", "inbound_nodes": [[["activation_170", 0, 0, {}]]]}, {"class_name": "BatchNormalization", "config": {"name": "batch_normalization_180", "trainable": true, "dtype": "float32", "axis": [3], "momentum": 0.99, "epsilon": 0.001, "center": true, "scale": true, "beta_initializer": {"class_name": "Zeros", "config": {}}, "gamma_initializer": {"class_name": "Ones", "config": {}}, "moving_mean_initializer": {"class_name": "Zeros", "config": {}}, "moving_variance_initializer": {"class_name": "Ones", "config": {}}, "beta_regularizer": null, "gamma_regularizer": null, "beta_constraint": null, "gamma_constraint": null}, "name": "batch_normalization_180", "inbound_nodes": [[["conv2d_180", 0, 0, {}]]]}, {"class_name": "Activation", "config": {"name": "activation_171", "trainable": true, "dtype": "float32", "activation": "relu"}, "name": "activation_171", "inbound_nodes": [[["batch_normalization_180", 0, 0, {}]]]}, {"class_name": "Conv2D", "config": {"name": "conv2d_181", "trainable": true, "dtype": "float32", "filters": 128, "kernel_size": [3, 3], "strides": [1, 1], "padding": "same", "data_format": "channels_last", "dilation_rate": [1, 1], "groups": 1, "activation": "linear", "use_bias": true, "kernel_initializer": {"class_name": "GlorotUniform", "config": {"seed": null}}, "bias_initializer": {"class_name": "Zeros", "config": {}}, "kernel_regularizer": null, "bias_regularizer": null, "activity_regularizer": null, "kernel_constraint": null, "bias_constraint": null}, "name": "conv2d_181", "inbound_nodes": [[["activation_171", 0, 0, {}]]]}, {"class_name": "BatchNormalization", "config": {"name": "batch_normalization_181", "trainable": true, "dtype": "float32", "axis": [3], "momentum": 0.99, "epsilon": 0.001, "center": true, "scale": true, "beta_initializer": {"class_name": "Zeros", "config": {}}, "gamma_initializer": {"class_name": "Ones", "config": {}}, "moving_mean_initializer": {"class_name": "Zeros", "config": {}}, "moving_variance_initializer": {"class_name": "Ones", "config": {}}, "beta_regularizer": null, "gamma_regularizer": null, "beta_constraint": null, "gamma_constraint": null}, "name": "batch_normalization_181", "inbound_nodes": [[["conv2d_181", 0, 0, {}]]]}, {"class_name": "Activation", "config": {"name": "activation_172", "trainable": true, "dtype": "float32", "activation": "relu"}, "name": "activation_172", "inbound_nodes": [[["batch_normalization_181", 0, 0, {}]]]}, {"class_name": "Conv2D", "config": {"name": "conv2d_182", "trainable": true, "dtype": "float32", "filters": 512, "kernel_size": [1, 1], "strides": [1, 1], "padding": "same", "data_format": "channels_last", "dilation_rate": [1, 1], "groups": 1, "activation": "linear", "use_bias": true, "kernel_initializer": {"class_name": "GlorotUniform", "config": {"seed": null}}, "bias_initializer": {"class_name": "Zeros", "config": {}}, "kernel_regularizer": null, "bias_regularizer": null, "activity_regularizer": null, "kernel_constraint": null, "bias_constraint": null}, "name": "conv2d_182", "inbound_nodes": [[["activation_172", 0, 0, {}]]]}, {"class_name": "BatchNormalization", "config": {"name": "batch_normalization_182", "trainable": true, "dtype": "float32", "axis": [3], "momentum": 0.99, "epsilon": 0.001, "center": true, "scale": true, "beta_initializer": {"class_name": "Zeros", "config": {}}, "gamma_initializer": {"class_name": "Ones", "config": {}}, "moving_mean_initializer": {"class_name": "Zeros", "config": {}}, "moving_variance_initializer": {"class_name": "Ones", "config": {}}, "beta_regularizer": null, "gamma_regularizer": null, "beta_constraint": null, "gamma_constraint": null}, "name": "batch_normalization_182", "inbound_nodes": [[["conv2d_182", 0, 0, {}]]]}, {"class_name": "Add", "config": {"name": "add_54", "trainable": true, "dtype": "float32"}, "name": "add_54", "inbound_nodes": [[["batch_normalization_182", 0, 0, {}], ["activation_170", 0, 0, {}]]]}, {"class_name": "Activation", "config": {"name": "activation_173", "trainable": true, "dtype": "float32", "activation": "relu"}, "name": "activation_173", "inbound_nodes": [[["add_54", 0, 0, {}]]]}, {"class_name": "Conv2D", "config": {"name": "conv2d_184", "trainable": true, "dtype": "float32", "filters": 256, "kernel_size": [1, 1], "strides": [2, 2], "padding": "same", "data_format": "channels_last", "dilation_rate": [1, 1], "groups": 1, "activation": "linear", "use_bias": true, "kernel_initializer": {"class_name": "GlorotUniform", "config": {"seed": null}}, "bias_initializer": {"class_name": "Zeros", "config": {}}, "kernel_regularizer": null, "bias_regularizer": null, "activity_regularizer": null, "kernel_constraint": null, "bias_constraint": null}, "name": "conv2d_184", "inbound_nodes": [[["activation_173", 0, 0, {}]]]}, {"class_name": "BatchNormalization", "config": {"name": "batch_normalization_184", "trainable": true, "dtype": "float32", "axis": [3], "momentum": 0.99, "epsilon": 0.001, "center": true, "scale": true, "beta_initializer": {"class_name": "Zeros", "config": {}}, "gamma_initializer": {"class_name": "Ones", "config": {}}, "moving_mean_initializer": {"class_name": "Zeros", "config": {}}, "moving_variance_initializer": {"class_name": "Ones", "config": {}}, "beta_regularizer": null, "gamma_regularizer": null, "beta_constraint": null, "gamma_constraint": null}, "name": "batch_normalization_184", "inbound_nodes": [[["conv2d_184", 0, 0, {}]]]}, {"class_name": "Activation", "config": {"name": "activation_174", "trainable": true, "dtype": "float32", "activation": "relu"}, "name": "activation_174", "inbound_nodes": [[["batch_normalization_184", 0, 0, {}]]]}, {"class_name": "Conv2D", "config": {"name": "conv2d_185", "trainable": true, "dtype": "float32", "filters": 256, "kernel_size": [3, 3], "strides": [1, 1], "padding": "same", "data_format": "channels_last", "dilation_rate": [1, 1], "groups": 1, "activation": "linear", "use_bias": true, "kernel_initializer": {"class_name": "GlorotUniform", "config": {"seed": null}}, "bias_initializer": {"class_name": "Zeros", "config": {}}, "kernel_regularizer": null, "bias_regularizer": null, "activity_regularizer": null, "kernel_constraint": null, "bias_constraint": null}, "name": "conv2d_185", "inbound_nodes": [[["activation_174", 0, 0, {}]]]}, {"class_name": "BatchNormalization", "config": {"name": "batch_normalization_185", "trainable": true, "dtype": "float32", "axis": [3], "momentum": 0.99, "epsilon": 0.001, "center": true, "scale": true, "beta_initializer": {"class_name": "Zeros", "config": {}}, "gamma_initializer": {"class_name": "Ones", "config": {}}, "moving_mean_initializer": {"class_name": "Zeros", "config": {}}, "moving_variance_initializer": {"class_name": "Ones", "config": {}}, "beta_regularizer": null, "gamma_regularizer": null, "beta_constraint": null, "gamma_constraint": null}, "name": "batch_normalization_185", "inbound_nodes": [[["conv2d_185", 0, 0, {}]]]}, {"class_name": "Activation", "config": {"name": "activation_175", "trainable": true, "dtype": "float32", "activation": "relu"}, "name": "activation_175", "inbound_nodes": [[["batch_normalization_185", 0, 0, {}]]]}, {"class_name": "Conv2D", "config": {"name": "conv2d_186", "trainable": true, "dtype": "float32", "filters": 1024, "kernel_size": [1, 1], "strides": [1, 1], "padding": "same", "data_format": "channels_last", "dilation_rate": [1, 1], "groups": 1, "activation": "linear", "use_bias": true, "kernel_initializer": {"class_name": "GlorotUniform", "config": {"seed": null}}, "bias_initializer": {"class_name": "Zeros", "config": {}}, "kernel_regularizer": null, "bias_regularizer": null, "activity_regularizer": null, "kernel_constraint": null, "bias_constraint": null}, "name": "conv2d_186", "inbound_nodes": [[["activation_175", 0, 0, {}]]]}, {"class_name": "Conv2D", "config": {"name": "conv2d_183", "trainable": true, "dtype": "float32", "filters": 1024, "kernel_size": [1, 1], "strides": [2, 2], "padding": "same", "data_format": "channels_last", "dilation_rate": [1, 1], "groups": 1, "activation": "linear", "use_bias": true, "kernel_initializer": {"class_name": "GlorotUniform", "config": {"seed": null}}, "bias_initializer": {"class_name": "Zeros", "config": {}}, "kernel_regularizer": null, "bias_regularizer": null, "activity_regularizer": null, "kernel_constraint": null, "bias_constraint": null}, "name": "conv2d_183", "inbound_nodes": [[["activation_173", 0, 0, {}]]]}, {"class_name": "BatchNormalization", "config": {"name": "batch_normalization_186", "trainable": true, "dtype": "float32", "axis": [3], "momentum": 0.99, "epsilon": 0.001, "center": true, "scale": true, "beta_initializer": {"class_name": "Zeros", "config": {}}, "gamma_initializer": {"class_name": "Ones", "config": {}}, "moving_mean_initializer": {"class_name": "Zeros", "config": {}}, "moving_variance_initializer": {"class_name": "Ones", "config": {}}, "beta_regularizer": null, "gamma_regularizer": null, "beta_constraint": null, "gamma_constraint": null}, "name": "batch_normalization_186", "inbound_nodes": [[["conv2d_186", 0, 0, {}]]]}, {"class_name": "BatchNormalization", "config": {"name": "batch_normalization_183", "trainable": true, "dtype": "float32", "axis": [3], "momentum": 0.99, "epsilon": 0.001, "center": true, "scale": true, "beta_initializer": {"class_name": "Zeros", "config": {}}, "gamma_initializer": {"class_name": "Ones", "config": {}}, "moving_mean_initializer": {"class_name": "Zeros", "config": {}}, "moving_variance_initializer": {"class_name": "Ones", "config": {}}, "beta_regularizer": null, "gamma_regularizer": null, "beta_constraint": null, "gamma_constraint": null}, "name": "batch_normalization_183", "inbound_nodes": [[["conv2d_183", 0, 0, {}]]]}, {"class_name": "Add", "config": {"name": "add_55", "trainable": true, "dtype": "float32"}, "name": "add_55", "inbound_nodes": [[["batch_normalization_186", 0, 0, {}], ["batch_normalization_183", 0, 0, {}]]]}, {"class_name": "Activation", "config": {"name": "activation_176", "trainable": true, "dtype": "float32", "activation": "relu"}, "name": "activation_176", "inbound_nodes": [[["add_55", 0, 0, {}]]]}, {"class_name": "Conv2D", "config": {"name": "conv2d_187", "trainable": true, "dtype": "float32", "filters": 256, "kernel_size": [1, 1], "strides": [1, 1], "padding": "same", "data_format": "channels_last", "dilation_rate": [1, 1], "groups": 1, "activation": "linear", "use_bias": true, "kernel_initializer": {"class_name": "GlorotUniform", "config": {"seed": null}}, "bias_initializer": {"class_name": "Zeros", "config": {}}, "kernel_regularizer": null, "bias_regularizer": null, "activity_regularizer": null, "kernel_constraint": null, "bias_constraint": null}, "name": "conv2d_187", "inbound_nodes": [[["activation_176", 0, 0, {}]]]}, {"class_name": "BatchNormalization", "config": {"name": "batch_normalization_187", "trainable": true, "dtype": "float32", "axis": [3], "momentum": 0.99, "epsilon": 0.001, "center": true, "scale": true, "beta_initializer": {"class_name": "Zeros", "config": {}}, "gamma_initializer": {"class_name": "Ones", "config": {}}, "moving_mean_initializer": {"class_name": "Zeros", "config": {}}, "moving_variance_initializer": {"class_name": "Ones", "config": {}}, "beta_regularizer": null, "gamma_regularizer": null, "beta_constraint": null, "gamma_constraint": null}, "name": "batch_normalization_187", "inbound_nodes": [[["conv2d_187", 0, 0, {}]]]}, {"class_name": "Activation", "config": {"name": "activation_177", "trainable": true, "dtype": "float32", "activation": "relu"}, "name": "activation_177", "inbound_nodes": [[["batch_normalization_187", 0, 0, {}]]]}, {"class_name": "Conv2D", "config": {"name": "conv2d_188", "trainable": true, "dtype": "float32", "filters": 256, "kernel_size": [3, 3], "strides": [1, 1], "padding": "same", "data_format": "channels_last", "dilation_rate": [1, 1], "groups": 1, "activation": "linear", "use_bias": true, "kernel_initializer": {"class_name": "GlorotUniform", "config": {"seed": null}}, "bias_initializer": {"class_name": "Zeros", "config": {}}, "kernel_regularizer": null, "bias_regularizer": null, "activity_regularizer": null, "kernel_constraint": null, "bias_constraint": null}, "name": "conv2d_188", "inbound_nodes": [[["activation_177", 0, 0, {}]]]}, {"class_name": "BatchNormalization", "config": {"name": "batch_normalization_188", "trainable": true, "dtype": "float32", "axis": [3], "momentum": 0.99, "epsilon": 0.001, "center": true, "scale": true, "beta_initializer": {"class_name": "Zeros", "config": {}}, "gamma_initializer": {"class_name": "Ones", "config": {}}, "moving_mean_initializer": {"class_name": "Zeros", "config": {}}, "moving_variance_initializer": {"class_name": "Ones", "config": {}}, "beta_regularizer": null, "gamma_regularizer": null, "beta_constraint": null, "gamma_constraint": null}, "name": "batch_normalization_188", "inbound_nodes": [[["conv2d_188", 0, 0, {}]]]}, {"class_name": "Activation", "config": {"name": "activation_178", "trainable": true, "dtype": "float32", "activation": "relu"}, "name": "activation_178", "inbound_nodes": [[["batch_normalization_188", 0, 0, {}]]]}, {"class_name": "Conv2D", "config": {"name": "conv2d_189", "trainable": true, "dtype": "float32", "filters": 1024, "kernel_size": [1, 1], "strides": [1, 1], "padding": "same", "data_format": "channels_last", "dilation_rate": [1, 1], "groups": 1, "activation": "linear", "use_bias": true, "kernel_initializer": {"class_name": "GlorotUniform", "config": {"seed": null}}, "bias_initializer": {"class_name": "Zeros", "config": {}}, "kernel_regularizer": null, "bias_regularizer": null, "activity_regularizer": null, "kernel_constraint": null, "bias_constraint": null}, "name": "conv2d_189", "inbound_nodes": [[["activation_178", 0, 0, {}]]]}, {"class_name": "BatchNormalization", "config": {"name": "batch_normalization_189", "trainable": true, "dtype": "float32", "axis": [3], "momentum": 0.99, "epsilon": 0.001, "center": true, "scale": true, "beta_initializer": {"class_name": "Zeros", "config": {}}, "gamma_initializer": {"class_name": "Ones", "config": {}}, "moving_mean_initializer": {"class_name": "Zeros", "config": {}}, "moving_variance_initializer": {"class_name": "Ones", "config": {}}, "beta_regularizer": null, "gamma_regularizer": null, "beta_constraint": null, "gamma_constraint": null}, "name": "batch_normalization_189", "inbound_nodes": [[["conv2d_189", 0, 0, {}]]]}, {"class_name": "Add", "config": {"name": "add_56", "trainable": true, "dtype": "float32"}, "name": "add_56", "inbound_nodes": [[["batch_normalization_189", 0, 0, {}], ["activation_176", 0, 0, {}]]]}, {"class_name": "Activation", "config": {"name": "activation_179", "trainable": true, "dtype": "float32", "activation": "relu"}, "name": "activation_179", "inbound_nodes": [[["add_56", 0, 0, {}]]]}, {"class_name": "Conv2D", "config": {"name": "conv2d_190", "trainable": true, "dtype": "float32", "filters": 256, "kernel_size": [1, 1], "strides": [1, 1], "padding": "same", "data_format": "channels_last", "dilation_rate": [1, 1], "groups": 1, "activation": "linear", "use_bias": true, "kernel_initializer": {"class_name": "GlorotUniform", "config": {"seed": null}}, "bias_initializer": {"class_name": "Zeros", "config": {}}, "kernel_regularizer": null, "bias_regularizer": null, "activity_regularizer": null, "kernel_constraint": null, "bias_constraint": null}, "name": "conv2d_190", "inbound_nodes": [[["activation_179", 0, 0, {}]]]}, {"class_name": "BatchNormalization", "config": {"name": "batch_normalization_190", "trainable": true, "dtype": "float32", "axis": [3], "momentum": 0.99, "epsilon": 0.001, "center": true, "scale": true, "beta_initializer": {"class_name": "Zeros", "config": {}}, "gamma_initializer": {"class_name": "Ones", "config": {}}, "moving_mean_initializer": {"class_name": "Zeros", "config": {}}, "moving_variance_initializer": {"class_name": "Ones", "config": {}}, "beta_regularizer": null, "gamma_regularizer": null, "beta_constraint": null, "gamma_constraint": null}, "name": "batch_normalization_190", "inbound_nodes": [[["conv2d_190", 0, 0, {}]]]}, {"class_name": "Activation", "config": {"name": "activation_180", "trainable": true, "dtype": "float32", "activation": "relu"}, "name": "activation_180", "inbound_nodes": [[["batch_normalization_190", 0, 0, {}]]]}, {"class_name": "Conv2D", "config": {"name": "conv2d_191", "trainable": true, "dtype": "float32", "filters": 256, "kernel_size": [3, 3], "strides": [1, 1], "padding": "same", "data_format": "channels_last", "dilation_rate": [1, 1], "groups": 1, "activation": "linear", "use_bias": true, "kernel_initializer": {"class_name": "GlorotUniform", "config": {"seed": null}}, "bias_initializer": {"class_name": "Zeros", "config": {}}, "kernel_regularizer": null, "bias_regularizer": null, "activity_regularizer": null, "kernel_constraint": null, "bias_constraint": null}, "name": "conv2d_191", "inbound_nodes": [[["activation_180", 0, 0, {}]]]}, {"class_name": "BatchNormalization", "config": {"name": "batch_normalization_191", "trainable": true, "dtype": "float32", "axis": [3], "momentum": 0.99, "epsilon": 0.001, "center": true, "scale": true, "beta_initializer": {"class_name": "Zeros", "config": {}}, "gamma_initializer": {"class_name": "Ones", "config": {}}, "moving_mean_initializer": {"class_name": "Zeros", "config": {}}, "moving_variance_initializer": {"class_name": "Ones", "config": {}}, "beta_regularizer": null, "gamma_regularizer": null, "beta_constraint": null, "gamma_constraint": null}, "name": "batch_normalization_191", "inbound_nodes": [[["conv2d_191", 0, 0, {}]]]}, {"class_name": "Activation", "config": {"name": "activation_181", "trainable": true, "dtype": "float32", "activation": "relu"}, "name": "activation_181", "inbound_nodes": [[["batch_normalization_191", 0, 0, {}]]]}, {"class_name": "Conv2D", "config": {"name": "conv2d_192", "trainable": true, "dtype": "float32", "filters": 1024, "kernel_size": [1, 1], "strides": [1, 1], "padding": "same", "data_format": "channels_last", "dilation_rate": [1, 1], "groups": 1, "activation": "linear", "use_bias": true, "kernel_initializer": {"class_name": "GlorotUniform", "config": {"seed": null}}, "bias_initializer": {"class_name": "Zeros", "config": {}}, "kernel_regularizer": null, "bias_regularizer": null, "activity_regularizer": null, "kernel_constraint": null, "bias_constraint": null}, "name": "conv2d_192", "inbound_nodes": [[["activation_181", 0, 0, {}]]]}, {"class_name": "BatchNormalization", "config": {"name": "batch_normalization_192", "trainable": true, "dtype": "float32", "axis": [3], "momentum": 0.99, "epsilon": 0.001, "center": true, "scale": true, "beta_initializer": {"class_name": "Zeros", "config": {}}, "gamma_initializer": {"class_name": "Ones", "config": {}}, "moving_mean_initializer": {"class_name": "Zeros", "config": {}}, "moving_variance_initializer": {"class_name": "Ones", "config": {}}, "beta_regularizer": null, "gamma_regularizer": null, "beta_constraint": null, "gamma_constraint": null}, "name": "batch_normalization_192", "inbound_nodes": [[["conv2d_192", 0, 0, {}]]]}, {"class_name": "Add", "config": {"name": "add_57", "trainable": true, "dtype": "float32"}, "name": "add_57", "inbound_nodes": [[["batch_normalization_192", 0, 0, {}], ["activation_179", 0, 0, {}]]]}, {"class_name": "Activation", "config": {"name": "activation_182", "trainable": true, "dtype": "float32", "activation": "relu"}, "name": "activation_182", "inbound_nodes": [[["add_57", 0, 0, {}]]]}, {"class_name": "Conv2D", "config": {"name": "conv2d_193", "trainable": true, "dtype": "float32", "filters": 256, "kernel_size": [1, 1], "strides": [1, 1], "padding": "same", "data_format": "channels_last", "dilation_rate": [1, 1], "groups": 1, "activation": "linear", "use_bias": true, "kernel_initializer": {"class_name": "GlorotUniform", "config": {"seed": null}}, "bias_initializer": {"class_name": "Zeros", "config": {}}, "kernel_regularizer": null, "bias_regularizer": null, "activity_regularizer": null, "kernel_constraint": null, "bias_constraint": null}, "name": "conv2d_193", "inbound_nodes": [[["activation_182", 0, 0, {}]]]}, {"class_name": "BatchNormalization", "config": {"name": "batch_normalization_193", "trainable": true, "dtype": "float32", "axis": [3], "momentum": 0.99, "epsilon": 0.001, "center": true, "scale": true, "beta_initializer": {"class_name": "Zeros", "config": {}}, "gamma_initializer": {"class_name": "Ones", "config": {}}, "moving_mean_initializer": {"class_name": "Zeros", "config": {}}, "moving_variance_initializer": {"class_name": "Ones", "config": {}}, "beta_regularizer": null, "gamma_regularizer": null, "beta_constraint": null, "gamma_constraint": null}, "name": "batch_normalization_193", "inbound_nodes": [[["conv2d_193", 0, 0, {}]]]}, {"class_name": "Activation", "config": {"name": "activation_183", "trainable": true, "dtype": "float32", "activation": "relu"}, "name": "activation_183", "inbound_nodes": [[["batch_normalization_193", 0, 0, {}]]]}, {"class_name": "Conv2D", "config": {"name": "conv2d_194", "trainable": true, "dtype": "float32", "filters": 256, "kernel_size": [3, 3], "strides": [1, 1], "padding": "same", "data_format": "channels_last", "dilation_rate": [1, 1], "groups": 1, "activation": "linear", "use_bias": true, "kernel_initializer": {"class_name": "GlorotUniform", "config": {"seed": null}}, "bias_initializer": {"class_name": "Zeros", "config": {}}, "kernel_regularizer": null, "bias_regularizer": null, "activity_regularizer": null, "kernel_constraint": null, "bias_constraint": null}, "name": "conv2d_194", "inbound_nodes": [[["activation_183", 0, 0, {}]]]}, {"class_name": "BatchNormalization", "config": {"name": "batch_normalization_194", "trainable": true, "dtype": "float32", "axis": [3], "momentum": 0.99, "epsilon": 0.001, "center": true, "scale": true, "beta_initializer": {"class_name": "Zeros", "config": {}}, "gamma_initializer": {"class_name": "Ones", "config": {}}, "moving_mean_initializer": {"class_name": "Zeros", "config": {}}, "moving_variance_initializer": {"class_name": "Ones", "config": {}}, "beta_regularizer": null, "gamma_regularizer": null, "beta_constraint": null, "gamma_constraint": null}, "name": "batch_normalization_194", "inbound_nodes": [[["conv2d_194", 0, 0, {}]]]}, {"class_name": "Activation", "config": {"name": "activation_184", "trainable": true, "dtype": "float32", "activation": "relu"}, "name": "activation_184", "inbound_nodes": [[["batch_normalization_194", 0, 0, {}]]]}, {"class_name": "Conv2D", "config": {"name": "conv2d_195", "trainable": true, "dtype": "float32", "filters": 1024, "kernel_size": [1, 1], "strides": [1, 1], "padding": "same", "data_format": "channels_last", "dilation_rate": [1, 1], "groups": 1, "activation": "linear", "use_bias": true, "kernel_initializer": {"class_name": "GlorotUniform", "config": {"seed": null}}, "bias_initializer": {"class_name": "Zeros", "config": {}}, "kernel_regularizer": null, "bias_regularizer": null, "activity_regularizer": null, "kernel_constraint": null, "bias_constraint": null}, "name": "conv2d_195", "inbound_nodes": [[["activation_184", 0, 0, {}]]]}, {"class_name": "BatchNormalization", "config": {"name": "batch_normalization_195", "trainable": true, "dtype": "float32", "axis": [3], "momentum": 0.99, "epsilon": 0.001, "center": true, "scale": true, "beta_initializer": {"class_name": "Zeros", "config": {}}, "gamma_initializer": {"class_name": "Ones", "config": {}}, "moving_mean_initializer": {"class_name": "Zeros", "config": {}}, "moving_variance_initializer": {"class_name": "Ones", "config": {}}, "beta_regularizer": null, "gamma_regularizer": null, "beta_constraint": null, "gamma_constraint": null}, "name": "batch_normalization_195", "inbound_nodes": [[["conv2d_195", 0, 0, {}]]]}, {"class_name": "Add", "config": {"name": "add_58", "trainable": true, "dtype": "float32"}, "name": "add_58", "inbound_nodes": [[["batch_normalization_195", 0, 0, {}], ["activation_182", 0, 0, {}]]]}, {"class_name": "Activation", "config": {"name": "activation_185", "trainable": true, "dtype": "float32", "activation": "relu"}, "name": "activation_185", "inbound_nodes": [[["add_58", 0, 0, {}]]]}, {"class_name": "Conv2D", "config": {"name": "conv2d_196", "trainable": true, "dtype": "float32", "filters": 256, "kernel_size": [1, 1], "strides": [1, 1], "padding": "same", "data_format": "channels_last", "dilation_rate": [1, 1], "groups": 1, "activation": "linear", "use_bias": true, "kernel_initializer": {"class_name": "GlorotUniform", "config": {"seed": null}}, "bias_initializer": {"class_name": "Zeros", "config": {}}, "kernel_regularizer": null, "bias_regularizer": null, "activity_regularizer": null, "kernel_constraint": null, "bias_constraint": null}, "name": "conv2d_196", "inbound_nodes": [[["activation_185", 0, 0, {}]]]}, {"class_name": "BatchNormalization", "config": {"name": "batch_normalization_196", "trainable": true, "dtype": "float32", "axis": [3], "momentum": 0.99, "epsilon": 0.001, "center": true, "scale": true, "beta_initializer": {"class_name": "Zeros", "config": {}}, "gamma_initializer": {"class_name": "Ones", "config": {}}, "moving_mean_initializer": {"class_name": "Zeros", "config": {}}, "moving_variance_initializer": {"class_name": "Ones", "config": {}}, "beta_regularizer": null, "gamma_regularizer": null, "beta_constraint": null, "gamma_constraint": null}, "name": "batch_normalization_196", "inbound_nodes": [[["conv2d_196", 0, 0, {}]]]}, {"class_name": "Activation", "config": {"name": "activation_186", "trainable": true, "dtype": "float32", "activation": "relu"}, "name": "activation_186", "inbound_nodes": [[["batch_normalization_196", 0, 0, {}]]]}, {"class_name": "Conv2D", "config": {"name": "conv2d_197", "trainable": true, "dtype": "float32", "filters": 256, "kernel_size": [3, 3], "strides": [1, 1], "padding": "same", "data_format": "channels_last", "dilation_rate": [1, 1], "groups": 1, "activation": "linear", "use_bias": true, "kernel_initializer": {"class_name": "GlorotUniform", "config": {"seed": null}}, "bias_initializer": {"class_name": "Zeros", "config": {}}, "kernel_regularizer": null, "bias_regularizer": null, "activity_regularizer": null, "kernel_constraint": null, "bias_constraint": null}, "name": "conv2d_197", "inbound_nodes": [[["activation_186", 0, 0, {}]]]}, {"class_name": "BatchNormalization", "config": {"name": "batch_normalization_197", "trainable": true, "dtype": "float32", "axis": [3], "momentum": 0.99, "epsilon": 0.001, "center": true, "scale": true, "beta_initializer": {"class_name": "Zeros", "config": {}}, "gamma_initializer": {"class_name": "Ones", "config": {}}, "moving_mean_initializer": {"class_name": "Zeros", "config": {}}, "moving_variance_initializer": {"class_name": "Ones", "config": {}}, "beta_regularizer": null, "gamma_regularizer": null, "beta_constraint": null, "gamma_constraint": null}, "name": "batch_normalization_197", "inbound_nodes": [[["conv2d_197", 0, 0, {}]]]}, {"class_name": "Activation", "config": {"name": "activation_187", "trainable": true, "dtype": "float32", "activation": "relu"}, "name": "activation_187", "inbound_nodes": [[["batch_normalization_197", 0, 0, {}]]]}, {"class_name": "Conv2D", "config": {"name": "conv2d_198", "trainable": true, "dtype": "float32", "filters": 1024, "kernel_size": [1, 1], "strides": [1, 1], "padding": "same", "data_format": "channels_last", "dilation_rate": [1, 1], "groups": 1, "activation": "linear", "use_bias": true, "kernel_initializer": {"class_name": "GlorotUniform", "config": {"seed": null}}, "bias_initializer": {"class_name": "Zeros", "config": {}}, "kernel_regularizer": null, "bias_regularizer": null, "activity_regularizer": null, "kernel_constraint": null, "bias_constraint": null}, "name": "conv2d_198", "inbound_nodes": [[["activation_187", 0, 0, {}]]]}, {"class_name": "BatchNormalization", "config": {"name": "batch_normalization_198", "trainable": true, "dtype": "float32", "axis": [3], "momentum": 0.99, "epsilon": 0.001, "center": true, "scale": true, "beta_initializer": {"class_name": "Zeros", "config": {}}, "gamma_initializer": {"class_name": "Ones", "config": {}}, "moving_mean_initializer": {"class_name": "Zeros", "config": {}}, "moving_variance_initializer": {"class_name": "Ones", "config": {}}, "beta_regularizer": null, "gamma_regularizer": null, "beta_constraint": null, "gamma_constraint": null}, "name": "batch_normalization_198", "inbound_nodes": [[["conv2d_198", 0, 0, {}]]]}, {"class_name": "Add", "config": {"name": "add_59", "trainable": true, "dtype": "float32"}, "name": "add_59", "inbound_nodes": [[["batch_normalization_198", 0, 0, {}], ["activation_185", 0, 0, {}]]]}, {"class_name": "Activation", "config": {"name": "activation_188", "trainable": true, "dtype": "float32", "activation": "relu"}, "name": "activation_188", "inbound_nodes": [[["add_59", 0, 0, {}]]]}, {"class_name": "Conv2D", "config": {"name": "conv2d_199", "trainable": true, "dtype": "float32", "filters": 256, "kernel_size": [1, 1], "strides": [1, 1], "padding": "same", "data_format": "channels_last", "dilation_rate": [1, 1], "groups": 1, "activation": "linear", "use_bias": true, "kernel_initializer": {"class_name": "GlorotUniform", "config": {"seed": null}}, "bias_initializer": {"class_name": "Zeros", "config": {}}, "kernel_regularizer": null, "bias_regularizer": null, "activity_regularizer": null, "kernel_constraint": null, "bias_constraint": null}, "name": "conv2d_199", "inbound_nodes": [[["activation_188", 0, 0, {}]]]}, {"class_name": "BatchNormalization", "config": {"name": "batch_normalization_199", "trainable": true, "dtype": "float32", "axis": [3], "momentum": 0.99, "epsilon": 0.001, "center": true, "scale": true, "beta_initializer": {"class_name": "Zeros", "config": {}}, "gamma_initializer": {"class_name": "Ones", "config": {}}, "moving_mean_initializer": {"class_name": "Zeros", "config": {}}, "moving_variance_initializer": {"class_name": "Ones", "config": {}}, "beta_regularizer": null, "gamma_regularizer": null, "beta_constraint": null, "gamma_constraint": null}, "name": "batch_normalization_199", "inbound_nodes": [[["conv2d_199", 0, 0, {}]]]}, {"class_name": "Activation", "config": {"name": "activation_189", "trainable": true, "dtype": "float32", "activation": "relu"}, "name": "activation_189", "inbound_nodes": [[["batch_normalization_199", 0, 0, {}]]]}, {"class_name": "Conv2D", "config": {"name": "conv2d_200", "trainable": true, "dtype": "float32", "filters": 256, "kernel_size": [3, 3], "strides": [1, 1], "padding": "same", "data_format": "channels_last", "dilation_rate": [1, 1], "groups": 1, "activation": "linear", "use_bias": true, "kernel_initializer": {"class_name": "GlorotUniform", "config": {"seed": null}}, "bias_initializer": {"class_name": "Zeros", "config": {}}, "kernel_regularizer": null, "bias_regularizer": null, "activity_regularizer": null, "kernel_constraint": null, "bias_constraint": null}, "name": "conv2d_200", "inbound_nodes": [[["activation_189", 0, 0, {}]]]}, {"class_name": "BatchNormalization", "config": {"name": "batch_normalization_200", "trainable": true, "dtype": "float32", "axis": [3], "momentum": 0.99, "epsilon": 0.001, "center": true, "scale": true, "beta_initializer": {"class_name": "Zeros", "config": {}}, "gamma_initializer": {"class_name": "Ones", "config": {}}, "moving_mean_initializer": {"class_name": "Zeros", "config": {}}, "moving_variance_initializer": {"class_name": "Ones", "config": {}}, "beta_regularizer": null, "gamma_regularizer": null, "beta_constraint": null, "gamma_constraint": null}, "name": "batch_normalization_200", "inbound_nodes": [[["conv2d_200", 0, 0, {}]]]}, {"class_name": "Activation", "config": {"name": "activation_190", "trainable": true, "dtype": "float32", "activation": "relu"}, "name": "activation_190", "inbound_nodes": [[["batch_normalization_200", 0, 0, {}]]]}, {"class_name": "Conv2D", "config": {"name": "conv2d_201", "trainable": true, "dtype": "float32", "filters": 1024, "kernel_size": [1, 1], "strides": [1, 1], "padding": "same", "data_format": "channels_last", "dilation_rate": [1, 1], "groups": 1, "activation": "linear", "use_bias": true, "kernel_initializer": {"class_name": "GlorotUniform", "config": {"seed": null}}, "bias_initializer": {"class_name": "Zeros", "config": {}}, "kernel_regularizer": null, "bias_regularizer": null, "activity_regularizer": null, "kernel_constraint": null, "bias_constraint": null}, "name": "conv2d_201", "inbound_nodes": [[["activation_190", 0, 0, {}]]]}, {"class_name": "BatchNormalization", "config": {"name": "batch_normalization_201", "trainable": true, "dtype": "float32", "axis": [3], "momentum": 0.99, "epsilon": 0.001, "center": true, "scale": true, "beta_initializer": {"class_name": "Zeros", "config": {}}, "gamma_initializer": {"class_name": "Ones", "config": {}}, "moving_mean_initializer": {"class_name": "Zeros", "config": {}}, "moving_variance_initializer": {"class_name": "Ones", "config": {}}, "beta_regularizer": null, "gamma_regularizer": null, "beta_constraint": null, "gamma_constraint": null}, "name": "batch_normalization_201", "inbound_nodes": [[["conv2d_201", 0, 0, {}]]]}, {"class_name": "Add", "config": {"name": "add_60", "trainable": true, "dtype": "float32"}, "name": "add_60", "inbound_nodes": [[["batch_normalization_201", 0, 0, {}], ["activation_188", 0, 0, {}]]]}, {"class_name": "Activation", "config": {"name": "activation_191", "trainable": true, "dtype": "float32", "activation": "relu"}, "name": "activation_191", "inbound_nodes": [[["add_60", 0, 0, {}]]]}, {"class_name": "Conv2D", "config": {"name": "conv2d_203", "trainable": true, "dtype": "float32", "filters": 512, "kernel_size": [1, 1], "strides": [2, 2], "padding": "same", "data_format": "channels_last", "dilation_rate": [1, 1], "groups": 1, "activation": "linear", "use_bias": true, "kernel_initializer": {"class_name": "GlorotUniform", "config": {"seed": null}}, "bias_initializer": {"class_name": "Zeros", "config": {}}, "kernel_regularizer": null, "bias_regularizer": null, "activity_regularizer": null, "kernel_constraint": null, "bias_constraint": null}, "name": "conv2d_203", "inbound_nodes": [[["activation_191", 0, 0, {}]]]}, {"class_name": "BatchNormalization", "config": {"name": "batch_normalization_203", "trainable": true, "dtype": "float32", "axis": [3], "momentum": 0.99, "epsilon": 0.001, "center": true, "scale": true, "beta_initializer": {"class_name": "Zeros", "config": {}}, "gamma_initializer": {"class_name": "Ones", "config": {}}, "moving_mean_initializer": {"class_name": "Zeros", "config": {}}, "moving_variance_initializer": {"class_name": "Ones", "config": {}}, "beta_regularizer": null, "gamma_regularizer": null, "beta_constraint": null, "gamma_constraint": null}, "name": "batch_normalization_203", "inbound_nodes": [[["conv2d_203", 0, 0, {}]]]}, {"class_name": "Activation", "config": {"name": "activation_192", "trainable": true, "dtype": "float32", "activation": "relu"}, "name": "activation_192", "inbound_nodes": [[["batch_normalization_203", 0, 0, {}]]]}, {"class_name": "Conv2D", "config": {"name": "conv2d_204", "trainable": true, "dtype": "float32", "filters": 512, "kernel_size": [3, 3], "strides": [1, 1], "padding": "same", "data_format": "channels_last", "dilation_rate": [1, 1], "groups": 1, "activation": "linear", "use_bias": true, "kernel_initializer": {"class_name": "GlorotUniform", "config": {"seed": null}}, "bias_initializer": {"class_name": "Zeros", "config": {}}, "kernel_regularizer": null, "bias_regularizer": null, "activity_regularizer": null, "kernel_constraint": null, "bias_constraint": null}, "name": "conv2d_204", "inbound_nodes": [[["activation_192", 0, 0, {}]]]}, {"class_name": "BatchNormalization", "config": {"name": "batch_normalization_204", "trainable": true, "dtype": "float32", "axis": [3], "momentum": 0.99, "epsilon": 0.001, "center": true, "scale": true, "beta_initializer": {"class_name": "Zeros", "config": {}}, "gamma_initializer": {"class_name": "Ones", "config": {}}, "moving_mean_initializer": {"class_name": "Zeros", "config": {}}, "moving_variance_initializer": {"class_name": "Ones", "config": {}}, "beta_regularizer": null, "gamma_regularizer": null, "beta_constraint": null, "gamma_constraint": null}, "name": "batch_normalization_204", "inbound_nodes": [[["conv2d_204", 0, 0, {}]]]}, {"class_name": "Activation", "config": {"name": "activation_193", "trainable": true, "dtype": "float32", "activation": "relu"}, "name": "activation_193", "inbound_nodes": [[["batch_normalization_204", 0, 0, {}]]]}, {"class_name": "Conv2D", "config": {"name": "conv2d_205", "trainable": true, "dtype": "float32", "filters": 2048, "kernel_size": [1, 1], "strides": [1, 1], "padding": "same", "data_format": "channels_last", "dilation_rate": [1, 1], "groups": 1, "activation": "linear", "use_bias": true, "kernel_initializer": {"class_name": "GlorotUniform", "config": {"seed": null}}, "bias_initializer": {"class_name": "Zeros", "config": {}}, "kernel_regularizer": null, "bias_regularizer": null, "activity_regularizer": null, "kernel_constraint": null, "bias_constraint": null}, "name": "conv2d_205", "inbound_nodes": [[["activation_193", 0, 0, {}]]]}, {"class_name": "Conv2D", "config": {"name": "conv2d_202", "trainable": true, "dtype": "float32", "filters": 2048, "kernel_size": [1, 1], "strides": [2, 2], "padding": "same", "data_format": "channels_last", "dilation_rate": [1, 1], "groups": 1, "activation": "linear", "use_bias": true, "kernel_initializer": {"class_name": "GlorotUniform", "config": {"seed": null}}, "bias_initializer": {"class_name": "Zeros", "config": {}}, "kernel_regularizer": null, "bias_regularizer": null, "activity_regularizer": null, "kernel_constraint": null, "bias_constraint": null}, "name": "conv2d_202", "inbound_nodes": [[["activation_191", 0, 0, {}]]]}, {"class_name": "BatchNormalization", "config": {"name": "batch_normalization_205", "trainable": true, "dtype": "float32", "axis": [3], "momentum": 0.99, "epsilon": 0.001, "center": true, "scale": true, "beta_initializer": {"class_name": "Zeros", "config": {}}, "gamma_initializer": {"class_name": "Ones", "config": {}}, "moving_mean_initializer": {"class_name": "Zeros", "config": {}}, "moving_variance_initializer": {"class_name": "Ones", "config": {}}, "beta_regularizer": null, "gamma_regularizer": null, "beta_constraint": null, "gamma_constraint": null}, "name": "batch_normalization_205", "inbound_nodes": [[["conv2d_205", 0, 0, {}]]]}, {"class_name": "BatchNormalization", "config": {"name": "batch_normalization_202", "trainable": true, "dtype": "float32", "axis": [3], "momentum": 0.99, "epsilon": 0.001, "center": true, "scale": true, "beta_initializer": {"class_name": "Zeros", "config": {}}, "gamma_initializer": {"class_name": "Ones", "config": {}}, "moving_mean_initializer": {"class_name": "Zeros", "config": {}}, "moving_variance_initializer": {"class_name": "Ones", "config": {}}, "beta_regularizer": null, "gamma_regularizer": null, "beta_constraint": null, "gamma_constraint": null}, "name": "batch_normalization_202", "inbound_nodes": [[["conv2d_202", 0, 0, {}]]]}, {"class_name": "Add", "config": {"name": "add_61", "trainable": true, "dtype": "float32"}, "name": "add_61", "inbound_nodes": [[["batch_normalization_205", 0, 0, {}], ["batch_normalization_202", 0, 0, {}]]]}, {"class_name": "Activation", "config": {"name": "activation_194", "trainable": true, "dtype": "float32", "activation": "relu"}, "name": "activation_194", "inbound_nodes": [[["add_61", 0, 0, {}]]]}, {"class_name": "Conv2D", "config": {"name": "conv2d_206", "trainable": true, "dtype": "float32", "filters": 512, "kernel_size": [1, 1], "strides": [1, 1], "padding": "same", "data_format": "channels_last", "dilation_rate": [1, 1], "groups": 1, "activation": "linear", "use_bias": true, "kernel_initializer": {"class_name": "GlorotUniform", "config": {"seed": null}}, "bias_initializer": {"class_name": "Zeros", "config": {}}, "kernel_regularizer": null, "bias_regularizer": null, "activity_regularizer": null, "kernel_constraint": null, "bias_constraint": null}, "name": "conv2d_206", "inbound_nodes": [[["activation_194", 0, 0, {}]]]}, {"class_name": "BatchNormalization", "config": {"name": "batch_normalization_206", "trainable": true, "dtype": "float32", "axis": [3], "momentum": 0.99, "epsilon": 0.001, "center": true, "scale": true, "beta_initializer": {"class_name": "Zeros", "config": {}}, "gamma_initializer": {"class_name": "Ones", "config": {}}, "moving_mean_initializer": {"class_name": "Zeros", "config": {}}, "moving_variance_initializer": {"class_name": "Ones", "config": {}}, "beta_regularizer": null, "gamma_regularizer": null, "beta_constraint": null, "gamma_constraint": null}, "name": "batch_normalization_206", "inbound_nodes": [[["conv2d_206", 0, 0, {}]]]}, {"class_name": "Activation", "config": {"name": "activation_195", "trainable": true, "dtype": "float32", "activation": "relu"}, "name": "activation_195", "inbound_nodes": [[["batch_normalization_206", 0, 0, {}]]]}, {"class_name": "Conv2D", "config": {"name": "conv2d_207", "trainable": true, "dtype": "float32", "filters": 512, "kernel_size": [3, 3], "strides": [1, 1], "padding": "same", "data_format": "channels_last", "dilation_rate": [1, 1], "groups": 1, "activation": "linear", "use_bias": true, "kernel_initializer": {"class_name": "GlorotUniform", "config": {"seed": null}}, "bias_initializer": {"class_name": "Zeros", "config": {}}, "kernel_regularizer": null, "bias_regularizer": null, "activity_regularizer": null, "kernel_constraint": null, "bias_constraint": null}, "name": "conv2d_207", "inbound_nodes": [[["activation_195", 0, 0, {}]]]}, {"class_name": "BatchNormalization", "config": {"name": "batch_normalization_207", "trainable": true, "dtype": "float32", "axis": [3], "momentum": 0.99, "epsilon": 0.001, "center": true, "scale": true, "beta_initializer": {"class_name": "Zeros", "config": {}}, "gamma_initializer": {"class_name": "Ones", "config": {}}, "moving_mean_initializer": {"class_name": "Zeros", "config": {}}, "moving_variance_initializer": {"class_name": "Ones", "config": {}}, "beta_regularizer": null, "gamma_regularizer": null, "beta_constraint": null, "gamma_constraint": null}, "name": "batch_normalization_207", "inbound_nodes": [[["conv2d_207", 0, 0, {}]]]}, {"class_name": "Activation", "config": {"name": "activation_196", "trainable": true, "dtype": "float32", "activation": "relu"}, "name": "activation_196", "inbound_nodes": [[["batch_normalization_207", 0, 0, {}]]]}, {"class_name": "Conv2D", "config": {"name": "conv2d_208", "trainable": true, "dtype": "float32", "filters": 2048, "kernel_size": [1, 1], "strides": [1, 1], "padding": "same", "data_format": "channels_last", "dilation_rate": [1, 1], "groups": 1, "activation": "linear", "use_bias": true, "kernel_initializer": {"class_name": "GlorotUniform", "config": {"seed": null}}, "bias_initializer": {"class_name": "Zeros", "config": {}}, "kernel_regularizer": null, "bias_regularizer": null, "activity_regularizer": null, "kernel_constraint": null, "bias_constraint": null}, "name": "conv2d_208", "inbound_nodes": [[["activation_196", 0, 0, {}]]]}, {"class_name": "BatchNormalization", "config": {"name": "batch_normalization_208", "trainable": true, "dtype": "float32", "axis": [3], "momentum": 0.99, "epsilon": 0.001, "center": true, "scale": true, "beta_initializer": {"class_name": "Zeros", "config": {}}, "gamma_initializer": {"class_name": "Ones", "config": {}}, "moving_mean_initializer": {"class_name": "Zeros", "config": {}}, "moving_variance_initializer": {"class_name": "Ones", "config": {}}, "beta_regularizer": null, "gamma_regularizer": null, "beta_constraint": null, "gamma_constraint": null}, "name": "batch_normalization_208", "inbound_nodes": [[["conv2d_208", 0, 0, {}]]]}, {"class_name": "Add", "config": {"name": "add_62", "trainable": true, "dtype": "float32"}, "name": "add_62", "inbound_nodes": [[["batch_normalization_208", 0, 0, {}], ["activation_194", 0, 0, {}]]]}, {"class_name": "Activation", "config": {"name": "activation_197", "trainable": true, "dtype": "float32", "activation": "relu"}, "name": "activation_197", "inbound_nodes": [[["add_62", 0, 0, {}]]]}, {"class_name": "Conv2D", "config": {"name": "conv2d_209", "trainable": true, "dtype": "float32", "filters": 512, "kernel_size": [1, 1], "strides": [1, 1], "padding": "same", "data_format": "channels_last", "dilation_rate": [1, 1], "groups": 1, "activation": "linear", "use_bias": true, "kernel_initializer": {"class_name": "GlorotUniform", "config": {"seed": null}}, "bias_initializer": {"class_name": "Zeros", "config": {}}, "kernel_regularizer": null, "bias_regularizer": null, "activity_regularizer": null, "kernel_constraint": null, "bias_constraint": null}, "name": "conv2d_209", "inbound_nodes": [[["activation_197", 0, 0, {}]]]}, {"class_name": "BatchNormalization", "config": {"name": "batch_normalization_209", "trainable": true, "dtype": "float32", "axis": [3], "momentum": 0.99, "epsilon": 0.001, "center": true, "scale": true, "beta_initializer": {"class_name": "Zeros", "config": {}}, "gamma_initializer": {"class_name": "Ones", "config": {}}, "moving_mean_initializer": {"class_name": "Zeros", "config": {}}, "moving_variance_initializer": {"class_name": "Ones", "config": {}}, "beta_regularizer": null, "gamma_regularizer": null, "beta_constraint": null, "gamma_constraint": null}, "name": "batch_normalization_209", "inbound_nodes": [[["conv2d_209", 0, 0, {}]]]}, {"class_name": "Activation", "config": {"name": "activation_198", "trainable": true, "dtype": "float32", "activation": "relu"}, "name": "activation_198", "inbound_nodes": [[["batch_normalization_209", 0, 0, {}]]]}, {"class_name": "Conv2D", "config": {"name": "conv2d_210", "trainable": true, "dtype": "float32", "filters": 512, "kernel_size": [3, 3], "strides": [1, 1], "padding": "same", "data_format": "channels_last", "dilation_rate": [1, 1], "groups": 1, "activation": "linear", "use_bias": true, "kernel_initializer": {"class_name": "GlorotUniform", "config": {"seed": null}}, "bias_initializer": {"class_name": "Zeros", "config": {}}, "kernel_regularizer": null, "bias_regularizer": null, "activity_regularizer": null, "kernel_constraint": null, "bias_constraint": null}, "name": "conv2d_210", "inbound_nodes": [[["activation_198", 0, 0, {}]]]}, {"class_name": "BatchNormalization", "config": {"name": "batch_normalization_210", "trainable": true, "dtype": "float32", "axis": [3], "momentum": 0.99, "epsilon": 0.001, "center": true, "scale": true, "beta_initializer": {"class_name": "Zeros", "config": {}}, "gamma_initializer": {"class_name": "Ones", "config": {}}, "moving_mean_initializer": {"class_name": "Zeros", "config": {}}, "moving_variance_initializer": {"class_name": "Ones", "config": {}}, "beta_regularizer": null, "gamma_regularizer": null, "beta_constraint": null, "gamma_constraint": null}, "name": "batch_normalization_210", "inbound_nodes": [[["conv2d_210", 0, 0, {}]]]}, {"class_name": "Activation", "config": {"name": "activation_199", "trainable": true, "dtype": "float32", "activation": "relu"}, "name": "activation_199", "inbound_nodes": [[["batch_normalization_210", 0, 0, {}]]]}, {"class_name": "Conv2D", "config": {"name": "conv2d_211", "trainable": true, "dtype": "float32", "filters": 2048, "kernel_size": [1, 1], "strides": [1, 1], "padding": "same", "data_format": "channels_last", "dilation_rate": [1, 1], "groups": 1, "activation": "linear", "use_bias": true, "kernel_initializer": {"class_name": "GlorotUniform", "config": {"seed": null}}, "bias_initializer": {"class_name": "Zeros", "config": {}}, "kernel_regularizer": null, "bias_regularizer": null, "activity_regularizer": null, "kernel_constraint": null, "bias_constraint": null}, "name": "conv2d_211", "inbound_nodes": [[["activation_199", 0, 0, {}]]]}, {"class_name": "BatchNormalization", "config": {"name": "batch_normalization_211", "trainable": true, "dtype": "float32", "axis": [3], "momentum": 0.99, "epsilon": 0.001, "center": true, "scale": true, "beta_initializer": {"class_name": "Zeros", "config": {}}, "gamma_initializer": {"class_name": "Ones", "config": {}}, "moving_mean_initializer": {"class_name": "Zeros", "config": {}}, "moving_variance_initializer": {"class_name": "Ones", "config": {}}, "beta_regularizer": null, "gamma_regularizer": null, "beta_constraint": null, "gamma_constraint": null}, "name": "batch_normalization_211", "inbound_nodes": [[["conv2d_211", 0, 0, {}]]]}, {"class_name": "Add", "config": {"name": "add_63", "trainable": true, "dtype": "float32"}, "name": "add_63", "inbound_nodes": [[["batch_normalization_211", 0, 0, {}], ["activation_197", 0, 0, {}]]]}, {"class_name": "Activation", "config": {"name": "activation_200", "trainable": true, "dtype": "float32", "activation": "relu"}, "name": "activation_200", "inbound_nodes": [[["add_63", 0, 0, {}]]]}, {"class_name": "GlobalAveragePooling2D", "config": {"name": "global_avg_pooling", "trainable": true, "dtype": "float32", "data_format": "channels_last"}, "name": "global_avg_pooling", "inbound_nodes": [[["activation_200", 0, 0, {}]]]}, {"class_name": "Dense", "config": {"name": "dense_6", "trainable": true, "dtype": "float32", "units": 4, "activation": "linear", "use_bias": true, "kernel_initializer": {"class_name": "GlorotUniform", "config": {"seed": null}}, "bias_initializer": {"class_name": "Zeros", "config": {}}, "kernel_regularizer": null, "bias_regularizer": null, "activity_regularizer": null, "kernel_constraint": null, "bias_constraint": null}, "name": "dense_6", "inbound_nodes": [[["global_avg_pooling", 0, 0, {}]]]}, {"class_name": "Activation", "config": {"name": "activation_202", "trainable": true, "dtype": "float32", "activation": "softmax"}, "name": "activation_202", "inbound_nodes": [[["dense_6", 0, 0, {}]]]}], "input_layers": [["input_4", 0, 0]], "output_layers": [["activation_202", 0, 0]]}}, "training_config": {"loss": "categorical_crossentropy", "metrics": ["accuracy"], "weighted_metrics": null, "loss_weights": null, "optimizer_config": {"class_name": "Adam", "config": {"name": "Adam", "learning_rate": 0.0010000000474974513, "decay": 9.999999747378752e-05, "beta_1": 0.8999999761581421, "beta_2": 0.9990000128746033, "epsilon": 1e-07, "amsgrad": false}}}}, "weightsManifest": [{"paths": ["group1-shard1of23.bin", "group1-shard2of23.bin", "group1-shard3of23.bin", "group1-shard4of23.bin", "group1-shard5of23.bin", "group1-shard6of23.bin", "group1-shard7of23.bin", "group1-shard8of23.bin", "group1-shard9of23.bin", "group1-shard10of23.bin", "group1-shard11of23.bin", "group1-shard12of23.bin", "group1-shard13of23.bin", "group1-shard14of23.bin", "group1-shard15of23.bin", "group1-shard16of23.bin", "group1-shard17of23.bin", "group1-shard18of23.bin", "group1-shard19of23.bin", "group1-shard20of23.bin", "group1-shard21of23.bin", "group1-shard22of23.bin", "group1-shard23of23.bin"], "weights": [{"name": "batch_normalization_159/gamma", "shape": [64], "dtype": "float32"}, {"name": "batch_normalization_159/beta", "shape": [64], "dtype": "float32"}, {"name": "batch_normalization_159/moving_mean", "shape": [64], "dtype": "float32"}, {"name": "batch_normalization_159/moving_variance", "shape": [64], "dtype": "float32"}, {"name": "batch_normalization_160/gamma", "shape": [256], "dtype": "float32"}, {"name": "batch_normalization_160/beta", "shape": [256], "dtype": "float32"}, {"name": "batch_normalization_160/moving_mean", "shape": [256], "dtype": "float32"}, {"name": "batch_normalization_160/moving_variance", "shape": [256], "dtype": "float32"}, {"name": "batch_normalization_161/gamma", "shape": [64], "dtype": "float32"}, {"name": "batch_normalization_161/beta", "shape": [64], "dtype": "float32"}, {"name": "batch_normalization_161/moving_mean", "shape": [64], "dtype": "float32"}, {"name": "batch_normalization_161/moving_variance", "shape": [64], "dtype": "float32"}, {"name": "batch_normalization_162/gamma", "shape": [64], "dtype": "float32"}, {"name": "batch_normalization_162/beta", "shape": [64], "dtype": "float32"}, {"name": "batch_normalization_162/moving_mean", "shape": [64], "dtype": "float32"}, {"name": "batch_normalization_162/moving_variance", "shape": [64], "dtype": "float32"}, {"name": "batch_normalization_163/gamma", "shape": [256], "dtype": "float32"}, {"name": "batch_normalization_163/beta", "shape": [256], "dtype": "float32"}, {"name": "batch_normalization_163/moving_mean", "shape": [256], "dtype": "float32"}, {"name": "batch_normalization_163/moving_variance", "shape": [256], "dtype": "float32"}, {"name": "batch_normalization_164/gamma", "shape": [64], "dtype": "float32"}, {"name": "batch_normalization_164/beta", "shape": [64], "dtype": "float32"}, {"name": "batch_normalization_164/moving_mean", "shape": [64], "dtype": "float32"}, {"name": "batch_normalization_164/moving_variance", "shape": [64], "dtype": "float32"}, {"name": "batch_normalization_165/gamma", "shape": [64], "dtype": "float32"}, {"name": "batch_normalization_165/beta", "shape": [64], "dtype": "float32"}, {"name": "batch_normalization_165/moving_mean", "shape": [64], "dtype": "float32"}, {"name": "batch_normalization_165/moving_variance", "shape": [64], "dtype": "float32"}, {"name": "batch_normalization_166/gamma", "shape": [256], "dtype": "float32"}, {"name": "batch_normalization_166/beta", "shape": [256], "dtype": "float32"}, {"name": "batch_normalization_166/moving_mean", "shape": [256], "dtype": "float32"}, {"name": "batch_normalization_166/moving_variance", "shape": [256], "dtype": "float32"}, {"name": "batch_normalization_167/gamma", "shape": [64], "dtype": "float32"}, {"name": "batch_normalization_167/beta", "shape": [64], "dtype": "float32"}, {"name": "batch_normalization_167/moving_mean", "shape": [64], "dtype": "float32"}, {"name": "batch_normalization_167/moving_variance", "shape": [64], "dtype": "float32"}, {"name": "batch_normalization_168/gamma", "shape": [64], "dtype": "float32"}, {"name": "batch_normalization_168/beta", "shape": [64], "dtype": "float32"}, {"name": "batch_normalization_168/moving_mean", "shape": [64], "dtype": "float32"}, {"name": "batch_normalization_168/moving_variance", "shape": [64], "dtype": "float32"}, {"name": "batch_normalization_169/gamma", "shape": [256], "dtype": "float32"}, {"name": "batch_normalization_169/beta", "shape": [256], "dtype": "float32"}, {"name": "batch_normalization_169/moving_mean", "shape": [256], "dtype": "float32"}, {"name": "batch_normalization_169/moving_variance", "shape": [256], "dtype": "float32"}, {"name": "batch_normalization_170/gamma", "shape": [512], "dtype": "float32"}, {"name": "batch_normalization_170/beta", "shape": [512], "dtype": "float32"}, {"name": "batch_normalization_170/moving_mean", "shape": [512], "dtype": "float32"}, {"name": "batch_normalization_170/moving_variance", "shape": [512], "dtype": "float32"}, {"name": "batch_normalization_171/gamma", "shape": [128], "dtype": "float32"}, {"name": "batch_normalization_171/beta", "shape": [128], "dtype": "float32"}, {"name": "batch_normalization_171/moving_mean", "shape": [128], "dtype": "float32"}, {"name": "batch_normalization_171/moving_variance", "shape": [128], "dtype": "float32"}, {"name": "batch_normalization_172/gamma", "shape": [128], "dtype": "float32"}, {"name": "batch_normalization_172/beta", "shape": [128], "dtype": "float32"}, {"name": "batch_normalization_172/moving_mean", "shape": [128], "dtype": "float32"}, {"name": "batch_normalization_172/moving_variance", "shape": [128], "dtype": "float32"}, {"name": "batch_normalization_173/gamma", "shape": [512], "dtype": "float32"}, {"name": "batch_normalization_173/beta", "shape": [512], "dtype": "float32"}, {"name": "batch_normalization_173/moving_mean", "shape": [512], "dtype": "float32"}, {"name": "batch_normalization_173/moving_variance", "shape": [512], "dtype": "float32"}, {"name": "batch_normalization_174/gamma", "shape": [128], "dtype": "float32"}, {"name": "batch_normalization_174/beta", "shape": [128], "dtype": "float32"}, {"name": "batch_normalization_174/moving_mean", "shape": [128], "dtype": "float32"}, {"name": "batch_normalization_174/moving_variance", "shape": [128], "dtype": "float32"}, {"name": "batch_normalization_175/gamma", "shape": [128], "dtype": "float32"}, {"name": "batch_normalization_175/beta", "shape": [128], "dtype": "float32"}, {"name": "batch_normalization_175/moving_mean", "shape": [128], "dtype": "float32"}, {"name": "batch_normalization_175/moving_variance", "shape": [128], "dtype": "float32"}, {"name": "batch_normalization_176/gamma", "shape": [512], "dtype": "float32"}, {"name": "batch_normalization_176/beta", "shape": [512], "dtype": "float32"}, {"name": "batch_normalization_176/moving_mean", "shape": [512], "dtype": "float32"}, {"name": "batch_normalization_176/moving_variance", "shape": [512], "dtype": "float32"}, {"name": "batch_normalization_177/gamma", "shape": [128], "dtype": "float32"}, {"name": "batch_normalization_177/beta", "shape": [128], "dtype": "float32"}, {"name": "batch_normalization_177/moving_mean", "shape": [128], "dtype": "float32"}, {"name": "batch_normalization_177/moving_variance", "shape": [128], "dtype": "float32"}, {"name": "batch_normalization_178/gamma", "shape": [128], "dtype": "float32"}, {"name": "batch_normalization_178/beta", "shape": [128], "dtype": "float32"}, {"name": "batch_normalization_178/moving_mean", "shape": [128], "dtype": "float32"}, {"name": "batch_normalization_178/moving_variance", "shape": [128], "dtype": "float32"}, {"name": "batch_normalization_179/gamma", "shape": [512], "dtype": "float32"}, {"name": "batch_normalization_179/beta", "shape": [512], "dtype": "float32"}, {"name": "batch_normalization_179/moving_mean", "shape": [512], "dtype": "float32"}, {"name": "batch_normalization_179/moving_variance", "shape": [512], "dtype": "float32"}, {"name": "batch_normalization_180/gamma", "shape": [128], "dtype": "float32"}, {"name": "batch_normalization_180/beta", "shape": [128], "dtype": "float32"}, {"name": "batch_normalization_180/moving_mean", "shape": [128], "dtype": "float32"}, {"name": "batch_normalization_180/moving_variance", "shape": [128], "dtype": "float32"}, {"name": "batch_normalization_181/gamma", "shape": [128], "dtype": "float32"}, {"name": "batch_normalization_181/beta", "shape": [128], "dtype": "float32"}, {"name": "batch_normalization_181/moving_mean", "shape": [128], "dtype": "float32"}, {"name": "batch_normalization_181/moving_variance", "shape": [128], "dtype": "float32"}, {"name": "batch_normalization_182/gamma", "shape": [512], "dtype": "float32"}, {"name": "batch_normalization_182/beta", "shape": [512], "dtype": "float32"}, {"name": "batch_normalization_182/moving_mean", "shape": [512], "dtype": "float32"}, {"name": "batch_normalization_182/moving_variance", "shape": [512], "dtype": "float32"}, {"name": "batch_normalization_183/gamma", "shape": [1024], "dtype": "float32"}, {"name": "batch_normalization_183/beta", "shape": [1024], "dtype": "float32"}, {"name": "batch_normalization_183/moving_mean", "shape": [1024], "dtype": "float32"}, {"name": "batch_normalization_183/moving_variance", "shape": [1024], "dtype": "float32"}, {"name": "batch_normalization_184/gamma", "shape": [256], "dtype": "float32"}, {"name": "batch_normalization_184/beta", "shape": [256], "dtype": "float32"}, {"name": "batch_normalization_184/moving_mean", "shape": [256], "dtype": "float32"}, {"name": "batch_normalization_184/moving_variance", "shape": [256], "dtype": "float32"}, {"name": "batch_normalization_185/gamma", "shape": [256], "dtype": "float32"}, {"name": "batch_normalization_185/beta", "shape": [256], "dtype": "float32"}, {"name": "batch_normalization_185/moving_mean", "shape": [256], "dtype": "float32"}, {"name": "batch_normalization_185/moving_variance", "shape": [256], "dtype": "float32"}, {"name": "batch_normalization_186/gamma", "shape": [1024], "dtype": "float32"}, {"name": "batch_normalization_186/beta", "shape": [1024], "dtype": "float32"}, {"name": "batch_normalization_186/moving_mean", "shape": [1024], "dtype": "float32"}, {"name": "batch_normalization_186/moving_variance", "shape": [1024], "dtype": "float32"}, {"name": "batch_normalization_187/gamma", "shape": [256], "dtype": "float32"}, {"name": "batch_normalization_187/beta", "shape": [256], "dtype": "float32"}, {"name": "batch_normalization_187/moving_mean", "shape": [256], "dtype": "float32"}, {"name": "batch_normalization_187/moving_variance", "shape": [256], "dtype": "float32"}, {"name": "batch_normalization_188/gamma", "shape": [256], "dtype": "float32"}, {"name": "batch_normalization_188/beta", "shape": [256], "dtype": "float32"}, {"name": "batch_normalization_188/moving_mean", "shape": [256], "dtype": "float32"}, {"name": "batch_normalization_188/moving_variance", "shape": [256], "dtype": "float32"}, {"name": "batch_normalization_189/gamma", "shape": [1024], "dtype": "float32"}, {"name": "batch_normalization_189/beta", "shape": [1024], "dtype": "float32"}, {"name": "batch_normalization_189/moving_mean", "shape": [1024], "dtype": "float32"}, {"name": "batch_normalization_189/moving_variance", "shape": [1024], "dtype": "float32"}, {"name": "batch_normalization_190/gamma", "shape": [256], "dtype": "float32"}, {"name": "batch_normalization_190/beta", "shape": [256], "dtype": "float32"}, {"name": "batch_normalization_190/moving_mean", "shape": [256], "dtype": "float32"}, {"name": "batch_normalization_190/moving_variance", "shape": [256], "dtype": "float32"}, {"name": "batch_normalization_191/gamma", "shape": [256], "dtype": "float32"}, {"name": "batch_normalization_191/beta", "shape": [256], "dtype": "float32"}, {"name": "batch_normalization_191/moving_mean", "shape": [256], "dtype": "float32"}, {"name": "batch_normalization_191/moving_variance", "shape": [256], "dtype": "float32"}, {"name": "batch_normalization_192/gamma", "shape": [1024], "dtype": "float32"}, {"name": "batch_normalization_192/beta", "shape": [1024], "dtype": "float32"}, {"name": "batch_normalization_192/moving_mean", "shape": [1024], "dtype": "float32"}, {"name": "batch_normalization_192/moving_variance", "shape": [1024], "dtype": "float32"}, {"name": "batch_normalization_193/gamma", "shape": [256], "dtype": "float32"}, {"name": "batch_normalization_193/beta", "shape": [256], "dtype": "float32"}, {"name": "batch_normalization_193/moving_mean", "shape": [256], "dtype": "float32"}, {"name": "batch_normalization_193/moving_variance", "shape": [256], "dtype": "float32"}, {"name": "batch_normalization_194/gamma", "shape": [256], "dtype": "float32"}, {"name": "batch_normalization_194/beta", "shape": [256], "dtype": "float32"}, {"name": "batch_normalization_194/moving_mean", "shape": [256], "dtype": "float32"}, {"name": "batch_normalization_194/moving_variance", "shape": [256], "dtype": "float32"}, {"name": "batch_normalization_195/gamma", "shape": [1024], "dtype": "float32"}, {"name": "batch_normalization_195/beta", "shape": [1024], "dtype": "float32"}, {"name": "batch_normalization_195/moving_mean", "shape": [1024], "dtype": "float32"}, {"name": "batch_normalization_195/moving_variance", "shape": [1024], "dtype": "float32"}, {"name": "batch_normalization_196/gamma", "shape": [256], "dtype": "float32"}, {"name": "batch_normalization_196/beta", "shape": [256], "dtype": "float32"}, {"name": "batch_normalization_196/moving_mean", "shape": [256], "dtype": "float32"}, {"name": "batch_normalization_196/moving_variance", "shape": [256], "dtype": "float32"}, {"name": "batch_normalization_197/gamma", "shape": [256], "dtype": "float32"}, {"name": "batch_normalization_197/beta", "shape": [256], "dtype": "float32"}, {"name": "batch_normalization_197/moving_mean", "shape": [256], "dtype": "float32"}, {"name": "batch_normalization_197/moving_variance", "shape": [256], "dtype": "float32"}, {"name": "batch_normalization_198/gamma", "shape": [1024], "dtype": "float32"}, {"name": "batch_normalization_198/beta", "shape": [1024], "dtype": "float32"}, {"name": "batch_normalization_198/moving_mean", "shape": [1024], "dtype": "float32"}, {"name": "batch_normalization_198/moving_variance", "shape": [1024], "dtype": "float32"}, {"name": "batch_normalization_199/gamma", "shape": [256], "dtype": "float32"}, {"name": "batch_normalization_199/beta", "shape": [256], "dtype": "float32"}, {"name": "batch_normalization_199/moving_mean", "shape": [256], "dtype": "float32"}, {"name": "batch_normalization_199/moving_variance", "shape": [256], "dtype": "float32"}, {"name": "batch_normalization_200/gamma", "shape": [256], "dtype": "float32"}, {"name": "batch_normalization_200/beta", "shape": [256], "dtype": "float32"}, {"name": "batch_normalization_200/moving_mean", "shape": [256], "dtype": "float32"}, {"name": "batch_normalization_200/moving_variance", "shape": [256], "dtype": "float32"}, {"name": "batch_normalization_201/gamma", "shape": [1024], "dtype": "float32"}, {"name": "batch_normalization_201/beta", "shape": [1024], "dtype": "float32"}, {"name": "batch_normalization_201/moving_mean", "shape": [1024], "dtype": "float32"}, {"name": "batch_normalization_201/moving_variance", "shape": [1024], "dtype": "float32"}, {"name": "batch_normalization_202/gamma", "shape": [2048], "dtype": "float32"}, {"name": "batch_normalization_202/beta", "shape": [2048], "dtype": "float32"}, {"name": "batch_normalization_202/moving_mean", "shape": [2048], "dtype": "float32"}, {"name": "batch_normalization_202/moving_variance", "shape": [2048], "dtype": "float32"}, {"name": "batch_normalization_203/gamma", "shape": [512], "dtype": "float32"}, {"name": "batch_normalization_203/beta", "shape": [512], "dtype": "float32"}, {"name": "batch_normalization_203/moving_mean", "shape": [512], "dtype": "float32"}, {"name": "batch_normalization_203/moving_variance", "shape": [512], "dtype": "float32"}, {"name": "batch_normalization_204/gamma", "shape": [512], "dtype": "float32"}, {"name": "batch_normalization_204/beta", "shape": [512], "dtype": "float32"}, {"name": "batch_normalization_204/moving_mean", "shape": [512], "dtype": "float32"}, {"name": "batch_normalization_204/moving_variance", "shape": [512], "dtype": "float32"}, {"name": "batch_normalization_205/gamma", "shape": [2048], "dtype": "float32"}, {"name": "batch_normalization_205/beta", "shape": [2048], "dtype": "float32"}, {"name": "batch_normalization_205/moving_mean", "shape": [2048], "dtype": "float32"}, {"name": "batch_normalization_205/moving_variance", "shape": [2048], "dtype": "float32"}, {"name": "batch_normalization_206/gamma", "shape": [512], "dtype": "float32"}, {"name": "batch_normalization_206/beta", "shape": [512], "dtype": "float32"}, {"name": "batch_normalization_206/moving_mean", "shape": [512], "dtype": "float32"}, {"name": "batch_normalization_206/moving_variance", "shape": [512], "dtype": "float32"}, {"name": "batch_normalization_207/gamma", "shape": [512], "dtype": "float32"}, {"name": "batch_normalization_207/beta", "shape": [512], "dtype": "float32"}, {"name": "batch_normalization_207/moving_mean", "shape": [512], "dtype": "float32"}, {"name": "batch_normalization_207/moving_variance", "shape": [512], "dtype": "float32"}, {"name": "batch_normalization_208/gamma", "shape": [2048], "dtype": "float32"}, {"name": "batch_normalization_208/beta", "shape": [2048], "dtype": "float32"}, {"name": "batch_normalization_208/moving_mean", "shape": [2048], "dtype": "float32"}, {"name": "batch_normalization_208/moving_variance", "shape": [2048], "dtype": "float32"}, {"name": "batch_normalization_209/gamma", "shape": [512], "dtype": "float32"}, {"name": "batch_normalization_209/beta", "shape": [512], "dtype": "float32"}, {"name": "batch_normalization_209/moving_mean", "shape": [512], "dtype": "float32"}, {"name": "batch_normalization_209/moving_variance", "shape": [512], "dtype": "float32"}, {"name": "batch_normalization_210/gamma", "shape": [512], "dtype": "float32"}, {"name": "batch_normalization_210/beta", "shape": [512], "dtype": "float32"}, {"name": "batch_normalization_210/moving_mean", "shape": [512], "dtype": "float32"}, {"name": "batch_normalization_210/moving_variance", "shape": [512], "dtype": "float32"}, {"name": "batch_normalization_211/gamma", "shape": [2048], "dtype": "float32"}, {"name": "batch_normalization_211/beta", "shape": [2048], "dtype": "float32"}, {"name": "batch_normalization_211/moving_mean", "shape": [2048], "dtype": "float32"}, {"name": "batch_normalization_211/moving_variance", "shape": [2048], "dtype": "float32"}, {"name": "conv2d_159/kernel", "shape": [7, 7, 3, 64], "dtype": "float32"}, {"name": "conv2d_159/bias", "shape": [64], "dtype": "float32"}, {"name": "conv2d_160/kernel", "shape": [1, 1, 64, 256], "dtype": "float32"}, {"name": "conv2d_160/bias", "shape": [256], "dtype": "float32"}, {"name": "conv2d_161/kernel", "shape": [1, 1, 64, 64], "dtype": "float32"}, {"name": "conv2d_161/bias", "shape": [64], "dtype": "float32"}, {"name": "conv2d_162/kernel", "shape": [3, 3, 64, 64], "dtype": "float32"}, {"name": "conv2d_162/bias", "shape": [64], "dtype": "float32"}, {"name": "conv2d_163/kernel", "shape": [1, 1, 64, 256], "dtype": "float32"}, {"name": "conv2d_163/bias", "shape": [256], "dtype": "float32"}, {"name": "conv2d_164/kernel", "shape": [1, 1, 256, 64], "dtype": "float32"}, {"name": "conv2d_164/bias", "shape": [64], "dtype": "float32"}, {"name": "conv2d_165/kernel", "shape": [3, 3, 64, 64], "dtype": "float32"}, {"name": "conv2d_165/bias", "shape": [64], "dtype": "float32"}, {"name": "conv2d_166/kernel", "shape": [1, 1, 64, 256], "dtype": "float32"}, {"name": "conv2d_166/bias", "shape": [256], "dtype": "float32"}, {"name": "conv2d_167/kernel", "shape": [1, 1, 256, 64], "dtype": "float32"}, {"name": "conv2d_167/bias", "shape": [64], "dtype": "float32"}, {"name": "conv2d_168/kernel", "shape": [3, 3, 64, 64], "dtype": "float32"}, {"name": "conv2d_168/bias", "shape": [64], "dtype": "float32"}, {"name": "conv2d_169/kernel", "shape": [1, 1, 64, 256], "dtype": "float32"}, {"name": "conv2d_169/bias", "shape": [256], "dtype": "float32"}, {"name": "conv2d_170/kernel", "shape": [1, 1, 256, 512], "dtype": "float32"}, {"name": "conv2d_170/bias", "shape": [512], "dtype": "float32"}, {"name": "conv2d_171/kernel", "shape": [1, 1, 256, 128], "dtype": "float32"}, {"name": "conv2d_171/bias", "shape": [128], "dtype": "float32"}, {"name": "conv2d_172/kernel", "shape": [3, 3, 128, 128], "dtype": "float32"}, {"name": "conv2d_172/bias", "shape": [128], "dtype": "float32"}, {"name": "conv2d_173/kernel", "shape": [1, 1, 128, 512], "dtype": "float32"}, {"name": "conv2d_173/bias", "shape": [512], "dtype": "float32"}, {"name": "conv2d_174/kernel", "shape": [1, 1, 512, 128], "dtype": "float32"}, {"name": "conv2d_174/bias", "shape": [128], "dtype": "float32"}, {"name": "conv2d_175/kernel", "shape": [3, 3, 128, 128], "dtype": "float32"}, {"name": "conv2d_175/bias", "shape": [128], "dtype": "float32"}, {"name": "conv2d_176/kernel", "shape": [1, 1, 128, 512], "dtype": "float32"}, {"name": "conv2d_176/bias", "shape": [512], "dtype": "float32"}, {"name": "conv2d_177/kernel", "shape": [1, 1, 512, 128], "dtype": "float32"}, {"name": "conv2d_177/bias", "shape": [128], "dtype": "float32"}, {"name": "conv2d_178/kernel", "shape": [3, 3, 128, 128], "dtype": "float32"}, {"name": "conv2d_178/bias", "shape": [128], "dtype": "float32"}, {"name": "conv2d_179/kernel", "shape": [1, 1, 128, 512], "dtype": "float32"}, {"name": "conv2d_179/bias", "shape": [512], "dtype": "float32"}, {"name": "conv2d_180/kernel", "shape": [1, 1, 512, 128], "dtype": "float32"}, {"name": "conv2d_180/bias", "shape": [128], "dtype": "float32"}, {"name": "conv2d_181/kernel", "shape": [3, 3, 128, 128], "dtype": "float32"}, {"name": "conv2d_181/bias", "shape": [128], "dtype": "float32"}, {"name": "conv2d_182/kernel", "shape": [1, 1, 128, 512], "dtype": "float32"}, {"name": "conv2d_182/bias", "shape": [512], "dtype": "float32"}, {"name": "conv2d_183/kernel", "shape": [1, 1, 512, 1024], "dtype": "float32"}, {"name": "conv2d_183/bias", "shape": [1024], "dtype": "float32"}, {"name": "conv2d_184/kernel", "shape": [1, 1, 512, 256], "dtype": "float32"}, {"name": "conv2d_184/bias", "shape": [256], "dtype": "float32"}, {"name": "conv2d_185/kernel", "shape": [3, 3, 256, 256], "dtype": "float32"}, {"name": "conv2d_185/bias", "shape": [256], "dtype": "float32"}, {"name": "conv2d_186/kernel", "shape": [1, 1, 256, 1024], "dtype": "float32"}, {"name": "conv2d_186/bias", "shape": [1024], "dtype": "float32"}, {"name": "conv2d_187/kernel", "shape": [1, 1, 1024, 256], "dtype": "float32"}, {"name": "conv2d_187/bias", "shape": [256], "dtype": "float32"}, {"name": "conv2d_188/kernel", "shape": [3, 3, 256, 256], "dtype": "float32"}, {"name": "conv2d_188/bias", "shape": [256], "dtype": "float32"}, {"name": "conv2d_189/kernel", "shape": [1, 1, 256, 1024], "dtype": "float32"}, {"name": "conv2d_189/bias", "shape": [1024], "dtype": "float32"}, {"name": "conv2d_190/kernel", "shape": [1, 1, 1024, 256], "dtype": "float32"}, {"name": "conv2d_190/bias", "shape": [256], "dtype": "float32"}, {"name": "conv2d_191/kernel", "shape": [3, 3, 256, 256], "dtype": "float32"}, {"name": "conv2d_191/bias", "shape": [256], "dtype": "float32"}, {"name": "conv2d_192/kernel", "shape": [1, 1, 256, 1024], "dtype": "float32"}, {"name": "conv2d_192/bias", "shape": [1024], "dtype": "float32"}, {"name": "conv2d_193/kernel", "shape": [1, 1, 1024, 256], "dtype": "float32"}, {"name": "conv2d_193/bias", "shape": [256], "dtype": "float32"}, {"name": "conv2d_194/kernel", "shape": [3, 3, 256, 256], "dtype": "float32"}, {"name": "conv2d_194/bias", "shape": [256], "dtype": "float32"}, {"name": "conv2d_195/kernel", "shape": [1, 1, 256, 1024], "dtype": "float32"}, {"name": "conv2d_195/bias", "shape": [1024], "dtype": "float32"}, {"name": "conv2d_196/kernel", "shape": [1, 1, 1024, 256], "dtype": "float32"}, {"name": "conv2d_196/bias", "shape": [256], "dtype": "float32"}, {"name": "conv2d_197/kernel", "shape": [3, 3, 256, 256], "dtype": "float32"}, {"name": "conv2d_197/bias", "shape": [256], "dtype": "float32"}, {"name": "conv2d_198/kernel", "shape": [1, 1, 256, 1024], "dtype": "float32"}, {"name": "conv2d_198/bias", "shape": [1024], "dtype": "float32"}, {"name": "conv2d_199/kernel", "shape": [1, 1, 1024, 256], "dtype": "float32"}, {"name": "conv2d_199/bias", "shape": [256], "dtype": "float32"}, {"name": "conv2d_200/kernel", "shape": [3, 3, 256, 256], "dtype": "float32"}, {"name": "conv2d_200/bias", "shape": [256], "dtype": "float32"}, {"name": "conv2d_201/kernel", "shape": [1, 1, 256, 1024], "dtype": "float32"}, {"name": "conv2d_201/bias", "shape": [1024], "dtype": "float32"}, {"name": "conv2d_202/kernel", "shape": [1, 1, 1024, 2048], "dtype": "float32"}, {"name": "conv2d_202/bias", "shape": [2048], "dtype": "float32"}, {"name": "conv2d_203/kernel", "shape": [1, 1, 1024, 512], "dtype": "float32"}, {"name": "conv2d_203/bias", "shape": [512], "dtype": "float32"}, {"name": "conv2d_204/kernel", "shape": [3, 3, 512, 512], "dtype": "float32"}, {"name": "conv2d_204/bias", "shape": [512], "dtype": "float32"}, {"name": "conv2d_205/kernel", "shape": [1, 1, 512, 2048], "dtype": "float32"}, {"name": "conv2d_205/bias", "shape": [2048], "dtype": "float32"}, {"name": "conv2d_206/kernel", "shape": [1, 1, 2048, 512], "dtype": "float32"}, {"name": "conv2d_206/bias", "shape": [512], "dtype": "float32"}, {"name": "conv2d_207/kernel", "shape": [3, 3, 512, 512], "dtype": "float32"}, {"name": "conv2d_207/bias", "shape": [512], "dtype": "float32"}, {"name": "conv2d_208/kernel", "shape": [1, 1, 512, 2048], "dtype": "float32"}, {"name": "conv2d_208/bias", "shape": [2048], "dtype": "float32"}, {"name": "conv2d_209/kernel", "shape": [1, 1, 2048, 512], "dtype": "float32"}, {"name": "conv2d_209/bias", "shape": [512], "dtype": "float32"}, {"name": "conv2d_210/kernel", "shape": [3, 3, 512, 512], "dtype": "float32"}, {"name": "conv2d_210/bias", "shape": [512], "dtype": "float32"}, {"name": "conv2d_211/kernel", "shape": [1, 1, 512, 2048], "dtype": "float32"}, {"name": "conv2d_211/bias", "shape": [2048], "dtype": "float32"}, {"name": "dense_6/kernel", "shape": [2048, 4], "dtype": "float32"}, {"name": "dense_6/bias", "shape": [4], "dtype": "float32"}]}]}